ppo_weights.pth (torch, 485042 bytes, 11 tensors)

mlp_extractor.policy_net.0.weight f4 [64, 870]
0	0x3d8dbcc5	0.069207706
1	0xbd06652d	-0.032811332
2	0x3ad529f0	0.0016263109
3	0x3c253a49	0.010084697
4	0xbda8eeae	-0.082486495
5	0xbd6a45b6	-0.057195388
6	0x3d57ff4a	0.052733697
7	0x3b6abb3a	0.0035817162
8	0xbc90b95d	-0.017666513
9	0xba5ec1d1	-0.0008497509
10	0xbcceced2	-0.025245104
11	0xbd1204e7	-0.035649206
12	0x3d06d36b	0.032916468
13	0x3bb7313b	0.0055905855
14	0x3b7078b0	0.003669303
15	0x3ce4262c	0.027850233
16	0xbccbe2d3	-0.024888432
17	0x3c623b25	0.0138080465
18	0xbbefc224	-0.0073168445
19	0xbd8967a9	-0.06709225
20	0x3ccad6a3	0.02476055
21	0xbbb888de	-0.00563155
22	0xbd0563a0	-0.032565713
23	0xbdda5420	-0.10660577
24	0xbd3c0c0f	-0.045909937
25	0xbd48f5cc	-0.049062535
26	0xbd9b04bd	-0.07569263
27	0xbda1ae2e	-0.0789455
28	0x3ad28924	0.00160626
29	0xbd35f227	-0.044420388
30	0x3cd06549	0.025438922
31	0xbd9a5010	-0.07534802
32	0xbb106a79	-0.002203612
33	0xbd28604a	-0.041107453
34	0x3c44138d	0.011967552
35	0xbae2db7d	-0.0017307844
36	0xbe001d5d	-0.12511201
37	0xbe04c8fe	-0.12967297
38	0xbd439362	-0.047747977
39	0xbccdf623	-0.025141781
40	0xbd6f8ca6	-0.058483742
41	0x3dc49fc7	0.096007876
42	0xbc7b2e3a	-0.0153308455
43	0xbd87d5f4	-0.06632605
44	0xbd4558c6	-0.048180364
45	0x3ba634e8	0.005072225
46	0xbd8aff58	-0.06786984
47	0x3cb2fb3e	0.021848317
48	0x3d699245	0.05702426
49	0xbd806714	-0.062696606
50	0x3d41d264	0.047319785
51	0x3d0e1973	0.03469224
52	0x3d347fea	0.0440673
53	0x3cf64b1b	0.03006511
54	0x3c3f2688	0.011666901
55	0xbd177565	-0.03697719
56	0xbdc6bd13	-0.09704032
57	0x3dbda3d4	0.09259763
58	0x3cc4b0c8	0.024010077
59	0xbd04e6eb	-0.032446783
60	0xbd0ad0b5	-0.033890445
61	0xbd40096e	-0.046883993
62	0x3d182052	0.037140198
63	0xbd8e0cab	-0.0693601
64	0xbd1d89c5	-0.038461465
65	0x3813c3cb	3.5229878e-05
66	0x3cb66c81	0.022268536
67	0xbc1bd4a9	-0.009511151
68	0x3db104f0	0.0864352
69	0xbcf2dd31	-0.029646488
70	0xbd7be6d4	-0.06149943
71	0x3c835b5d	0.016034776
72	0xbc417d2a	-0.011809627
73	0x3c9225d9	0.017840313
74	0xbdd9755b	-0.10618087
75	0xbd84691a	-0.06465359
76	0x3d0096d9	0.03139386
77	0xbd41725f	-0.047228213
78	0x3d58cca5	0.05292954
79	0x3bd4c976	0.0064937426
80	0xbc22794f	-0.009916618
81	0x3c95b2f5	0.01827381
82	0x3c2f6dff	0.010707377
83	0xbcbe9dea	-0.023268659
84	0xbdb7f022	-0.089813486
85	0x3d9173fe	0.07102202
86	0xbd3e8274	-0.04651113
87	0x3d6eb547	0.05827835
88	0xbd647d26	-0.055783413
89	0x3cb6dbcf	0.02232161
90	0xbd0c10d8	-0.03419575
91	0xbd3cd960	-0.046105742
92	0x3ca3d6c8	0.019999877
93	0x3cdeb492	0.027185712
94	0xbc702fd8	-0.014659844
95	0x3da3f6da	0.080060676
96	0x3d14ce08	0.0363293
97	0xbd89e662	-0.06733395
98	0xbdc06b25	-0.09395436
99	0x3d19cc8a	0.03754858
100	0xbc99202b	-0.018692097
101	0xbe108c4d	-0.1411602
102	0x3d31adf9	0.043378804
103	0x3c3895e5	0.011266206
104	0x3c76dfa7	0.015067971
105	0x3d4098b5	0.047020633
106	0xbdd7dc94	-0.10540119
107	0xbdbe6171	-0.09295929
108	0xbc56a224	-0.013100181
109	0xbcb9cbd1	-0.022680195
110	0x3d7e585a	0.062095977
111	0x3b503928	0.003177235
112	0xbd496907	-0.049172428
113	0x3c4ab0ea	0.012371281
114	0x3ca4de72	0.020125601
115	0xbc8bd10f	-0.01706746
116	0x3d17c4c6	0.037052892
117	0x3cb2a4da	0.021807123
118	0xbc1c9986	-0.009558087
119	0x3b7a43ca	0.0038187378
120	0xbbebeb93	-0.0071997135
121	0xbc77a1a9	-0.015114226
122	0x3d3cd353	0.046099972
123	0x3d10b651	0.03533012
124	0xbd7cdfe3	-0.061736953
125	0x3d15877a	0.036506154
126	0x3d45025b	0.04809795
127	0x3d8cacbf	0.06868886
128	0xbb9c6657	-0.004772942
129	0x3ca88ef4	0.020575978
130	0x3d83b573	0.06431093
131	0xbd81e16d	-0.06341825
132	0x3d080268	0.03320542
133	0x3ccd2f4b	0.025046965
134	0x3c35d9af	0.011099263
135	0xbd35bbb1	-0.04436845
136	0x3ca1bfdc	0.019744806
137	0xbcca679f	-0.024707614
138	0x3c917b25	0.017758915
139	0x3d1064f3	0.035252523
140	0x3d3823fe	0.0449562
141	0xbbcd1b8c	-0.0062593874
142	0x3dc1494e	0.0943781
143	0xbcf961b1	-0.03044209
144	0xbd2cb231	-0.042162124
145	0x3d77a6df	0.060461875
146	0xbda804e7	-0.0820406
147	0xbc52ab4a	-0.012858221
148	0x3c7e232e	0.015511317
149	0xbd2f8924	-0.042855397
150	0xbd0d08a6	-0.034432076
151	0x3d5cdf8c	0.05392413
152	0x3d7fd4b0	0.062458694
153	0xbd1e60ce	-0.03866654
154	0xbc92e05f	-0.017929254
155	0x3cd337fb	0.02578353
156	0xbd6ee116	-0.058320127
157	0xbcc9cce8	-0.02463384
158	0xbd199611	-0.03749663
159	0x3d7be805	0.061500568
160	0x3d48ea41	0.049051527
161	0xbdc9a4b4	-0.09845868
162	0x3da001e1	0.078128584
163	0x3bca07a6	0.0061654625
164	0x3ddcaf55	0.107756294
165	0x3c7d5593	0.015462297
166	0x3bcf5c63	0.006328152
167	0xbd7fdce9	-0.062466536
168	0x3d880e02	0.06643297
169	0x3d3db9ce	0.046319775
170	0x3c344af3	0.011004197
171	0xbd887974	-0.0666379
172	0x3d0a8ac6	0.03382375
173	0x3cd3a2e7	0.025834514
174	0xbc8027d4	-0.015643992
175	0x3ca9376f	0.020656316
176	0x3b45d91e	0.0030189226
177	0xbb7eaec5	-0.0038861495
178	0x3bf3ab78	0.007436212
179	0x3c186341	0.009301008
180	0xbc133dcd	-0.008986902
181	0xbbaf84cf	-0.005356408
182	0x3da428d3	0.08015599
183	0xbc9769a1	-0.018482985
184	0x3ca73b95	0.020414153
185	0x3d220a46	0.03956058
186	0x3d8cb387	0.068701796
187	0xbd157ad6	-0.0364941
188	0xbcffc980	-0.031224012
189	0x3d6dbe5d	0.058042873
190	0xbcc7874c	-0.024356507
191	0x3c6b7b7f	0.0143727055
192	0xbd4a442b	-0.049381416
193	0x3d37ee5c	0.04490505
194	0xbca6370c	-0.02028992
195	0x3d869c12	0.06572737
196	0xbd7ea9b0	-0.062173545
197	0x3ce26243	0.027634745
198	0x3cc0f5f7	0.023554785
199	0x3d8969ad	0.06709609
200	0x3cb6956a	0.022288043
201	0x3d22a264	0.03970565
202	0x3d5cd512	0.053914137
203	0x3c8f0726	0.017459463
204	0x3d0fd3f4	0.035114244
205	0x3bab3a2f	0.005225442
206	0x39dfe454	0.00042703992
207	0x3d217691	0.039419714
208	0x3ddcabe9	0.10774977
209	0xbceaefa3	-0.02867872
210	0x3e000a69	0.12503971
211	0x3d571a1d	0.052515138
212	0x3d3712da	0.044695713
213	0x3cb5c619	0.022189187
214	0x3dd1e00a	0.1024781
215	0xbd42003b	-0.0473635
216	0x3c95e8ba	0.01829945
217	0x3d2ecc36	0.04267522
218	0x3d5d52ca	0.054034032
219	0x3c582ff4	0.013195027
220	0x3d9aae40	0.07552767
221	0x3d040253	0.03222878
222	0xbce348e3	-0.027744716
223	0x3ce51bd6	0.027967375
224	0x3cd8c7ec	0.026462518
225	0xbd9f24b0	-0.077706695
226	0xbb9d7499	-0.0048051593
227	0xbcc80aec	-0.02441927
228	0x3d5bbcc7	0.05364683
229	0x3d657ff1	0.056030218
230	0x3cae67f2	0.0212898
231	0x3c1cb138	0.009563737
232	0xbd23dffb	-0.040008526
233	0x3de04f2e	0.10952602
234	0x3da7f005	0.08200077
235	0xbc9a1a14	-0.018811263
236	0xbd5a50e9	-0.05329982
237	0x3cf829a4	0.030293293
238	0xbb7f8cec	-0.0038993908
239	0xbd52afb5	-0.0514371
240	0x3df7285f	0.12068247
241	0x3db6a498	0.089181125
242	0x3e14a3ce	0.14515612
243	0x3d77ad3f	0.060467955
244	0x3d995ea7	0.074887566
245	0xbbe1c221	-0.006889597
246	0x3c297890	0.010343686
247	0x3a32f99d	0.00068273564
248	0xbc27fb4f	-0.010252788
249	0x3da081f8	0.078372896
250	0x3c3e3756	0.011609873
251	0x3d1afba6	0.037837647
252	0x3d360672	0.04443974
253	0x3d9062a5	0.07050065
254	0x3e52b4e0	0.20576811
255	0x3ca4290b	0.020039102

mlp_extractor.policy_net.0.bias f4 [64]
0	0x3b9a9457	0.0047173905
1	0x3cfd0479	0.030885922
2	0xbd5f3f8b	-0.05450396
3	0x3d55b9dd	0.052179206
4	0xbcb20237	-0.021729572
5	0x3a0cc4f2	0.00053699233
6	0xbb89d672	-0.004206472
7	0xbcb83d47	-0.022490157
8	0xbd179c61	-0.03701437
9	0xbcc22db8	-0.023703441
10	0xbcdbbca3	-0.026823347
11	0x3c1630c1	0.009166897
12	0xbd32b45b	-0.04362903
13	0xbc974a16	-0.018467944
14	0xbc8a023c	-0.016846769
15	0xbd057c55	-0.032589275
16	0xbd2e3729	-0.042533074
17	0x3b466e59	0.0030278175
18	0xbc98efa4	-0.018668957
19	0xbd1c78b9	-0.038201068
20	0xbc262f17	-0.010143063
21	0x3d27f42d	0.04100435
22	0x3afb4571	0.0019170475
23	0xbbd6f769	-0.0065602553
24	0x3cdb8cf2	0.026800606
25	0xbd13a50a	-0.036046065
26	0x3d560d72	0.052258916
27	0x3d1461ca	0.03622607
28	0x3d30a7d8	0.04312882
29	0x3cc92824	0.024555273
30	0xbcbe4b14	-0.02322916
31	0x3ccc9bbc	0.024976604
32	0xbbcb567f	-0.0062053795
33	0xbccbbcf3	-0.024870371
34	0x3d0fbcd9	0.03509221
35	0xbcfdeecd	-0.030997658
36	0x3d057ad8	0.032587856
37	0xbc58065c	-0.01318511
38	0xbcb96760	-0.0226323
39	0x3c66440e	0.014054311
40	0x3c92d277	0.017922623
41	0xbd08ac88	-0.033367664
42	0xbcebe888	-0.028797403
43	0xbd7a307c	-0.061081395
44	0x3d306865	0.04306831
45	0xbd5b15db	-0.05348764
46	0x3c3d67ea	0.01156042
47	0xbd8627b5	-0.06550542
48	0xbb2b2d9b	-0.0026119712
49	0xbd3f7a34	-0.0467474
50	0x3cf5338d	0.029931808
51	0xbd095970	-0.03353256
52	0x3d6b69a7	0.057473805
53	0xbc68c9c9	-0.014208266
54	0xbca81f03	-0.0205226
55	0x3cdf281f	0.02724081
56	0xbccc33ec	-0.024927102
57	0xbd1efc15	-0.038814623
58	0xbc5e9c3e	-0.013587056
59	0x3c61e540	0.013787568
60	0xbd04ce68	-0.032423407
61	0xbd69cf41	-0.05708242
62	0xbd13f695	-0.03612383
63	0xbcf5bd53	-0.029997503

mlp_extractor.policy_net.2.weight f4 [64, 64]
0	0x3e4d377a	0.20040694
1	0xbe19f333	-0.1503418
2	0x3ed7584d	0.42059556
3	0xbdc51f26	-0.09625082
4	0x3cc871f2	0.024468396
5	0x3ee07a1f	0.4384317
6	0xbe6019c2	-0.21884826
7	0xbe9f7b86	-0.31148928
8	0x3d0478bc	0.032341704
9	0xbcaa2712	-0.020770583
10	0x3e661d97	0.22472225
11	0xbed502f5	-0.4160382
12	0x3e1bed87	0.15227328
13	0xbd571d84	-0.052518383
14	0x3d91a970	0.07112396
15	0x3ebc9e2a	0.3683942
16	0xbadd4b0c	-0.0016883328
17	0xbe6443fb	-0.22291557
18	0xbe7d3a2e	-0.24729225
19	0x3e3f1629	0.18660797
20	0xbcb86f89	-0.022514122
21	0xbd9d03bf	-0.0766673
22	0x3dbaa563	0.09113576
23	0xbe1b048b	-0.15138452
24	0xbddba02d	-0.107239105
25	0xbe592cc9	-0.2120849
26	0xbe1386d9	-0.14406909
27	0xbde045a3	-0.10950782
28	0xbe9361c3	-0.28785524
29	0x3beed3c3	0.0072884276
30	0x3e91744b	0.28409037
31	0xbe29d66c	-0.16585702
32	0xbe0c4784	-0.13699156
33	0x3ef0ceab	0.47032675
34	0xbea7a593	-0.3274351
35	0x39770dc3	0.00023560882
36	0xbd52ee47	-0.05149677
37	0xbc8284b5	-0.01593242
38	0x3ddf1278	0.108921945
39	0x3d4f1dd7	0.050565567
40	0xbdf679f3	-0.12034979
41	0x3e9450c3	0.28967866
42	0xbd725609	-0.05916408
43	0x3ee3605a	0.44409448
44	0xbe653ec0	-0.22387218
45	0x3d991441	0.07474566
46	0x3cce0ffb	0.025154104
47	0x3e728000	0.2368164
48	0xbe181792	-0.14852741
49	0xbc21d99c	-0.009878542
50	0xbe3838ec	-0.17990464
51	0xbd2f1d2c	-0.04275243
52	0xbda0d301	-0.07852746
53	0xbe6ce0bf	-0.23132609
54	0x3e627d76	0.22118172
55	0x3d803665	0.06260375
56	0xbde01c6d	-0.10942922
57	0x3e968ab4	0.29402697
58	0xbd3d5506	-0.046223663
59	0x3e381ec0	0.1798048
60	0x3c9ed582	0.019388918
61	0xbdca28b6	-0.09871046
62	0x3e2d6c6a	0.16935888
63	0x3db2821f	0.08716225
64	0xbd531fd9	-0.051544044
65	0x3e0d5741	0.13802816
66	0xbe5254df	-0.20540188
67	0x3dc57757	0.09641903
68	0xbe5a24d8	-0.21303117
69	0x3f018b5b	0.50603265
70	0x3e81eaeb	0.2537454
71	0xbda3a627	-0.079906754
72	0x3d701184	0.058610454
73	0x3d722438	0.059116572
74	0xbe05ebea	-0.13078275
75	0x3ce25608	0.027628914
76	0x3ca1d6f1	0.019755812
77	0xbcd16c81	-0.025564434
78	0xbe87a6e7	-0.26494524
79	0xbe176e2f	-0.14788125
80	0xbe959862	-0.2921782
81	0xbd544c8e	-0.05183082
82	0x3e9b3e90	0.3032117
83	0xbe48f1a6	-0.19623432
84	0x3e85c067	0.26123354
85	0x3e60996b	0.21933524
86	0x3cdf2694	0.027240075
87	0x3e042d54	0.12907916
88	0xbe3b6ad3	-0.18302469
89	0x3e5afff0	0.21386695
90	0x3db8b828	0.090195
91	0x3f0a8128	0.54103327
92	0xbdb9fb8e	-0.090811834
93	0x3d5a1500	0.053242683
94	0x3d48240f	0.048862513
95	0x3dc1ba5e	0.09459375
96	0x3de2727e	0.11056994
97	0xbd67de92	-0.056608744
98	0xbe1293b2	-0.14314154
99	0x3e537183	0.2064877
100	0x3d63d83d	0.055626143
101	0x3da11274	0.07864848
102	0xbe57e183	-0.2108212
103	0x38b8f2c2	8.819021e-05
104	0x3db3f307	0.08786588
105	0x3de7c577	0.1131696
106	0x3dd56b0c	0.10420808
107	0x3dff82de	0.12476133
108	0xbe2e2baa	-0.17008844
109	0x3e172053	0.14758424
110	0xbeb82585	-0.35966125
111	0xbebeb32e	-0.37246078
112	0xbece204f	-0.40259025
113	0xbe4c9af4	-0.19980985
114	0x3e8a48bd	0.2700862
115	0xbe20eb8e	-0.15714857
116	0xbe44039c	-0.19142002
117	0xbc6578c6	-0.014005845
118	0xbddd7da0	-0.10814977
119	0x3e11bb15	0.14231522
120	0xbd006554	-0.031346634
121	0x3d607fe8	0.05480948
122	0xbda28577	-0.07935613
123	0xbd92d204	-0.071689636
124	0xbdf9323b	-0.12167784
125	0xbe31a965	-0.17349775
126	0x3e05e546	0.13075742
127	0xba75bf68	-0.000937453
128	0xbd99ba06	-0.07506184
129	0x3de1d245	0.11026434
130	0xbdfc0a66	-0.12306671
131	0xbd99e86b	-0.07515033
132	0x3ce5799d	0.028012091
133	0xbcf9e6bd	-0.030505532
134	0x3dcff2b5	0.101537146
135	0x3e1f7299	0.1557106
136	0xbc0da8dd	-0.008646217
137	0xbe429aaf	-0.1900432
138	0xbcb761d1	-0.02238551
139	0x3ce6d863	0.028179353
140	0x3ea61d0d	0.3244404
141	0x3ea2e600	0.318161
142	0x3e17a0eb	0.14807479
143	0xbe4967de	-0.19668528
144	0xbc5a78be	-0.013334451
145	0xbef75ac0	-0.48311424
146	0xbe887a23	-0.26655683
147	0xbe930188	-0.28712106
148	0x3d0ba3a5	0.03409161
149	0xbb430ba8	-0.0029761586
150	0x3bb94261	0.005653665
151	0xbe0d4e2b	-0.1379935
152	0xbdb51ee5	-0.08843783
153	0xbdcd749d	-0.10032008
154	0x3e0b3454	0.1359418
155	0x3d5cc40b	0.0538979
156	0xbee8ab2f	-0.45443103
157	0x3e845bda	0.25851327
158	0x3d0d1d85	0.03445198
159	0x3df25861	0.11833263
160	0xbd1af3fd	-0.03783034
161	0xbe2cc3e4	-0.16871601
162	0xbcc84851	-0.024448546
163	0xbda3f290	-0.080052495
164	0x3ec97f5b	0.39354977
165	0xbe249509	-0.16072477
166	0xbe86956b	-0.26285872
167	0x3cd2d4b6	0.025736194
168	0xbe47d2fa	-0.19514075
169	0xbe23378c	-0.15939158
170	0x39897ae2	0.0002622223
171	0xbdd1e76d	-0.10249219
172	0x3e90ea33	0.2830368
173	0xbdf635f1	-0.12022007
174	0x3de8561b	0.11344548
175	0x3da6d719	0.08146495
176	0xbc382449	-0.01123912
177	0xbe5c00e8	-0.2148472
178	0x3e20bfd9	0.15698184
179	0x3bac69b0	0.0052616224
180	0xbec7c1f2	-0.39015156
181	0xbe4893ac	-0.19587582
182	0xbe8249bf	-0.2544689
183	0x3da71a63	0.0815933
184	0x3e19e9dc	0.15030617
185	0xbe62ab41	-0.2213564
186	0xbe82350c	-0.25431097
187	0x3de7540a	0.11295326
188	0xbc1cc8dc	-0.009569373
189	0xbd90d8db	-0.07072612
190	0xbe0b9c0f	-0.1363375
191	0xbdcb6609	-0.09931571
192	0x3e0396b7	0.12850462
193	0xbe572906	-0.21011743
194	0x3c48ba2b	0.012251417
195	0x3e8d2255	0.27565256
196	0xbe16f3a3	-0.14741378
197	0xbe9cbdfd	-0.306137
198	0xbe1d8d12	-0.15385845
199	0xbd4aba5c	-0.049494132
200	0xbda5beee	-0.080930576
201	0xbb2832d7	-0.0025665069
202	0x3d9fd0d0	0.078035
203	0x3d70ea23	0.05881704
204	0x3e12a69f	0.14321373
205	0xbe10b248	-0.14130509
206	0xbe42d486	-0.19026384
207	0x3e035644	0.12825876
208	0xbe895126	-0.26819724
209	0xbe642b33	-0.22282104
210	0xbe4d297a	-0.20035353
211	0xbecd1ffe	-0.4006347
212	0x3e649204	0.22321326
213	0xbe2c66e7	-0.16836129
214	0x3c73bb30	0.014876172
215	0xbdb0df25	-0.086363114
216	0xbbffdbaf	-0.0078081707
217	0x3d08b391	0.033374373
218	0xbe5d5c81	-0.21617319
219	0x3d99b1ab	0.075045906
220	0x3e14d5cb	0.1453468
221	0xbdff1738	-0.124556005
222	0xbc07ae8a	-0.008281359
223	0x3e603f1d	0.21899076
224	0x3bd97968	0.006636787
225	0xbed60fb5	-0.4180886
226	0xbe088ffa	-0.13336173
227	0x3d4c84a5	0.049931187
228	0xbdaf8577	-0.08570378
229	0xbe4f3049	-0.20233263
230	0xbe2a73e0	-0.16645765
231	0xbd591267	-0.052996065
232	0xbe81c631	-0.2534652
233	0x3e041473	0.12898426
234	0x3e573891	0.21017672
235	0x3d460873	0.0483479
236	0x3e03385c	0.12814468
237	0xbe2f71db	-0.17133276
238	0xbd5ae019	-0.053436372
239	0xbe58d6fc	-0.2117576
240	0xbbcba169	-0.00621431
241	0x3e781f18	0.24230611
242	0xbd861973	-0.06547823
243	0xbe0b280d	-0.13589497
244	0x3de9a1e3	0.114078306
245	0xbe88a603	-0.26689157
246	0x3d8edbe9	0.06975538
247	0x3d2ee7a7	0.04270139
248	0x3e4e941a	0.20173684
249	0xbb83b94e	-0.004019893
250	0x3e5be355	0.21473439
251	0xbe4e38aa	-0.20138803
252	0x3da2e5c5	0.07953981
253	0x3e404afa	0.18778601
254	0x3ed59bf5	0.41720548
255	0x3e09ea9d	0.13468404

mlp_extractor.policy_net.2.bias f4 [64]
0	0xbd6b7b8e	-0.057490878
1	0x3b052541	0.0020316395
2	0x3cf1f3d0	0.029535204
3	0xbc29ae92	-0.010356562
4	0xbd437ddc	-0.04772745
5	0x3ca159cb	0.019696137
6	0x3a14e20d	0.0005679436
7	0x3d0e5bbb	0.03475545
8	0x3c94e154	0.018173851
9	0x3bb87dbd	0.0056302235
10	0x3cdb503f	0.026771663
11	0x39eb62a3	0.00044896183
12	0x3c8868d8	0.016651556
13	0x3d132ae0	0.03592956
14	0x3c529a47	0.012854165
15	0xbcbae667	-0.022814943
16	0x3c4467d7	0.011987648
17	0x3cd2432e	0.0256668
18	0x3c6f917d	0.014622089
19	0xbc30e5e9	-0.010797002
20	0xba33b08b	-0.0006854615
21	0x3cb91887	0.022594703
22	0x3b138bfc	0.0022513857
23	0xbc6d31cf	-0.014477207
24	0xbd1b33e3	-0.03789128
25	0xbc34610e	-0.011009468
26	0x3cca35f9	0.02468394
27	0xbc067eb1	-0.0082089165
28	0xbb19f719	-0.002349323
29	0xbb9ce962	-0.0047885636
30	0xbc34bb8d	-0.011031044
31	0x38dbbe80	0.00010478217
32	0x3d490b07	0.049082782
33	0xbd14afaa	-0.03630034
34	0x3d107cbd	0.03527521
35	0xbcc75999	-0.024334716
36	0x3cac5ac1	0.021039369
37	0xbd5bae51	-0.053633038
38	0x3c356787	0.011072046
39	0xbd7e1a53	-0.062036823
40	0xbd16d958	-0.03682837
41	0x3ca3c96d	0.019993508
42	0x3d01e200	0.03170967
43	0xbc851c46	-0.016248833
44	0xbc5897d5	-0.013219793
45	0x3cb82338	0.022477731
46	0x3c24d955	0.010061582
47	0xbc88ad89	-0.01668431
48	0x3c80f5b4	0.01574216
49	0xbd437956	-0.047723137
50	0x3c99adc8	0.018759623
51	0xbc381a7b	-0.011236782
52	0xbc3e2f13	-0.011607903
53	0xbb577613	-0.0032876774
54	0xbd0c8944	-0.034310594
55	0x3c6c6141	0.014427484
56	0x3cc77d9b	0.024351886
57	0x3b873e5c	0.004127307
58	0x3ce3893b	0.027775398
59	0xbd19da9e	-0.037562005
60	0xbd260ef5	-0.040541608
61	0x394f9175	0.00019795245
62	0xbc3bee6d	-0.011470419
63	0xb9b81373	-0.00035109706

mlp_extractor.value_net.0.weight f4 [64, 870]
0	0x3d0b4329	0.033999596
1	0xbde471d0	-0.111545205
2	0x3ce802bc	0.028321616
3	0x3cd86a4c	0.026417874
4	0xbd7517cd	-0.05983715
5	0x3e2cd4a0	0.16877985
6	0x3e06e6b2	0.13173941
7	0x3e1dc21c	0.15406078
8	0xbc8e6e17	-0.01738648
9	0x3da98dc9	0.082789965
10	0x3e727b3f	0.23679827
11	0x3d125c99	0.03573284
12	0xbbcecae1	-0.006310806
13	0x3e9c7e6c	0.30565202
14	0x3dd67e75	0.104733385
15	0x3e6ec9a8	0.23319113
16	0xbdb12864	-0.08650282
17	0x3eaf208e	0.34204525
18	0x3ebe947f	0.3722267
19	0x3d56747e	0.05235719
20	0x3d9b5d95	0.07586209
21	0x3e25e9f5	0.16202529
22	0xbe3f6d99	-0.18694152
23	0x3e609eae	0.21935531
24	0x3d9b4eed	0.07583413
25	0xbd20994b	-0.03920869
26	0x3d858da3	0.06521156
27	0xbdf9e10b	-0.12201127
28	0xbdccc6b2	-0.099988356
29	0xbdfff0c2	-0.12497093
30	0xbe463802	-0.19357303
31	0x3d70c14f	0.058778103
32	0x3ec778a9	0.38959244
33	0x3e1bdcda	0.15220967
34	0x3d840234	0.06445733
35	0xbdd1e76b	-0.102492176
36	0x3c608882	0.013704421
37	0x3e32d070	0.17462325
38	0x3e6b611d	0.22986265
39	0xbd1a282c	-0.037635967
40	0x3d8b3c1d	0.06798575
41	0x3e90b462	0.2826262
42	0x3e3ba850	0.18325925
43	0x3e4198be	0.18905923
44	0xbcef3763	-0.029201215
45	0x3ec42804	0.3831178
46	0x3de2d7fe	0.110763535
47	0x3e51e5d2	0.20497826
48	0x3e087dc5	0.13329227
49	0x3dee0624	0.11622265
50	0xbdd347eb	-0.10316452
51	0x3d41d3cd	0.04732113
52	0xbd1aedba	-0.03782437
53	0xbcec559d	-0.028849417
54	0x3dae23d4	0.085029274
55	0x3d8b1d34	0.067926794
56	0x3dff7db4	0.12475148
57	0x3e35126b	0.17682807
58	0xbe32741b	-0.17427103
59	0x3e8482a7	0.2588093
60	0x3bf6f66b	0.0075366995
61	0xbcc9ecc4	-0.024649031
62	0x3dcc0add	0.099630095
63	0xbe1a5358	-0.15070856
64	0x3e8799e5	0.264846
65	0x3ea0e19c	0.31422126
66	0x3d647769	0.05577794
67	0xbe101720	-0.14071321
68	0x3ea7d62c	0.32780588
69	0x3dc1b85a	0.094589904
70	0xbccdf965	-0.025143335
71	0x3e5c5010	0.21514916
72	0x3ec90ab1	0.3926597
73	0xbe24ddef	-0.16100286
74	0x3dc39250	0.09549391
75	0x3ec5827e	0.3857612
76	0x3e330139	0.17480935
77	0x3edeca58	0.4351375
78	0x3e760815	0.2402652
79	0xbe2268ac	-0.15860242
80	0x3e035beb	0.12828033
81	0x3eb60445	0.35550132
82	0x3d188362	0.03723467
83	0xbd8bc33c	-0.068243474
84	0x3dd36b5b	0.10323211
85	0x3d5c2269	0.053743754
86	0x3d9b565e	0.075848326
87	0xbd5c1533	-0.053731155
88	0x3e3e0686	0.18557176
89	0xbc51879e	-0.012788681
90	0xbd483b37	-0.048884597
91	0xbdd6d0db	-0.10489055
92	0x3e8394f5	0.25699583
93	0xbe8df652	-0.2772699
94	0xbe08d019	-0.13360633
95	0xbd2befd3	-0.04197676
96	0x3cffebee	0.03124043
97	0x3e20d3f6	0.15705857
98	0x3c8096a0	0.015696824
99	0x3e5077a1	0.20358135
100	0xbdb189f7	-0.08668893
101	0x3e529c7a	0.20567504
102	0x3e343668	0.1759888
103	0xbdaf9963	-0.08574178
104	0xbeb6bea4	-0.35692322
105	0x3db5e6b6	0.08881895
106	0x3db873f8	0.09006494
107	0x3d50310b	0.05082802
108	0xbdfd0731	-0.12354887
109	0xbd418a30	-0.047250926
110	0xbdae46de	-0.085096106
111	0xbd4b08f8	-0.0495691
112	0xbccf93e9	-0.025339084
113	0x3ddefa96	0.10887639
114	0xbd77f082	-0.0605321
115	0xbd764ab7	-0.060129847
116	0x3e741465	0.23835905
117	0x3ce48b31	0.027898403
118	0x3e531865	0.20614775
119	0xbd97522c	-0.0738872
120	0xbe6884c1	-0.22706892
121	0x3dec2aad	0.11531577
122	0x3e762b3a	0.24039927
123	0xbb3a7fa4	-0.0028457427
124	0xbe1f71f3	-0.15570812
125	0x3f1bf796	0.6092466
126	0x3dcb3b47	0.09923416
127	0x3de66de6	0.1125143
128	0xbc4a6e70	-0.012355432
129	0xbcf33793	-0.029689586
130	0xbdcdc155	-0.10046641
131	0xbe34c1c1	-0.17652036
132	0x3e815c6f	0.25265834
133	0x3d12fd74	0.035886243
134	0xbde4ca8d	-0.11171446
135	0xbdea44d6	-0.11438911
136	0x3e988500	0.2978897
137	0xbc2485f9	-0.010041707
138	0x3d5fe6d9	0.054663513
139	0x3e0d474d	0.1379673
140	0x3e0b9881	0.13632394
141	0xbde4cd79	-0.11172003
142	0xbddd4711	-0.108045705
143	0x3cbdd435	0.023172477
144	0x3ee68ae4	0.4502784
145	0xbeb1290a	-0.34601623
146	0x3f2190ef	0.63111776
147	0x3f171e6a	0.59030783
148	0x3dc72e15	0.09725586
149	0x3e82f78e	0.25579494
150	0xbe013099	-0.12616195
151	0xbdf75c64	-0.12078169
152	0xbda27e6f	-0.079342715
153	0xbedc01ba	-0.42970067
154	0x3dbbc891	0.091691144
155	0x3e1d3b10	0.15354562
156	0x3ebac73f	0.36480138
157	0xbd6fc701	-0.058539394
158	0x3a6c8b5c	0.0009023452
159	0x3e90b93a	0.28266317
160	0xbd1a9900	-0.03774357
161	0xbd661ddc	-0.05618082
162	0xbe8e5df7	-0.27806064
163	0x3d333515	0.043751795
164	0xbc5428fe	-0.012949226
165	0xbde40728	-0.111341774
166	0xbb2f69ab	-0.0026765864
167	0x3d1144b6	0.03546592
168	0x3e157ff2	0.14599589
169	0x3e7f2e01	0.24919893
170	0x3e9a17b7	0.30096218
171	0x3e62c041	0.22143652
172	0xbdf08dbc	-0.11745784
173	0x3d20f0ed	0.039292265
174	0x3e8c367d	0.2738532
175	0xbe3122b4	-0.17298394
176	0xbd93fb49	-0.07225663
177	0xbe14a75a	-0.14516965
178	0x3e308211	0.17237116
179	0xbdc5c4b0	-0.09656656
180	0xbc4980c2	-0.012298765
181	0x3eb7bd1f	0.35886475
182	0x3e2ba342	0.16761497
183	0x3da5955a	0.08085127
184	0x3e47caf0	0.19511008
185	0xbdd3d14b	-0.10342654
186	0x3cbced74	0.023062445
187	0x3f060098	0.52344656
188	0x3c46b4a2	0.012128027
189	0x3e28ddbc	0.16490835
190	0x3efc9eb7	0.4933984
191	0x3e6e3a7b	0.23264496
192	0x3ef6ae3e	0.4817981
193	0xbd924170	-0.071413875
194	0x3dacf797	0.084456615
195	0x3dbf8fb6	0.093535826
196	0x3e10ffe8	0.1416012
197	0xbd870ab4	-0.06593838
198	0xbd574f69	-0.052565966
199	0xbe31606f	-0.17321943
200	0xbe0543ad	-0.13014098
201	0xbe04a89b	-0.12954943
202	0xbe72e4cc	-0.23720092
203	0x3cdcbe37	0.02694617
204	0x3da58396	0.08081739
205	0x3dcb37c4	0.09922746
206	0xbe9708d8	-0.29498935
207	0x3d940169	0.072268315
208	0x3e79634e	0.24354288
209	0xbd403eee	-0.046935014
210	0x3e15ca9b	0.14628069
211	0x3e9f8b19	0.3116081
212	0x3e1b08fa	0.15140143
213	0x3e8386ae	0.2568869
214	0x3c2f27f9	0.010690683
215	0x3e67ff63	0.22656016
216	0x3e593ee4	0.21215397
217	0x3e202234	0.15638047
218	0x3b84596a	0.0040389793
219	0x3d9063fd	0.07050321
220	0xbecab598	-0.3959167
221	0x3d2c2690	0.042028964
222	0x3e8780c0	0.26465416
223	0xbd16a87b	-0.03678177
224	0xbe8f1973	-0.27949104
225	0xbd079d9b	-0.03310929
226	0x3e311751	0.17294051
227	0xbd90248d	-0.070382215
228	0x3f018f4d	0.50609285
229	0x3dc06e86	0.09396081
230	0xbdb4fa10	-0.08836758
231	0xbd31e734	-0.043433383
232	0x3e2b6064	0.16735989
233	0x3eaa96c0	0.33318138
234	0x3e04840f	0.12941001
235	0x3ef98849	0.4873679
236	0x3e22ece5	0.1591068
237	0xbe38c246	-0.1804286
238	0x3e257ed3	0.16161661
239	0xbd9bedca	-0.07613714
240	0xbdab376f	-0.083601825
241	0xbe8660da	-0.26245767
242	0x3cefb5e0	0.02926153
243	0xbe88288c	-0.26593435
244	0xbd160c2d	-0.036632705
245	0x3dc82999	0.09773559
246	0xbe7790af	-0.24176286
247	0xbe2c04e5	-0.16798742
248	0x3e37dde3	0.17955737
249	0x3de0a08a	0.109681204
250	0xbcfcae83	-0.030844932
251	0x3e80aa78	0.25130057
252	0x3e88cd08	0.26718926
253	0xbea2c65d	-0.31791964
254	0xbe2790e5	-0.16363867
255	0x3e5549b8	0.20828903

mlp_extractor.value_net.0.bias f4 [64]
0	0xbd69f155	-0.057114918
1	0xbcc07a6c	-0.023495875
2	0x3ce093ce	0.027414229
3	0x3e74988a	0.23886314
4	0xbda85bfc	-0.082206696
5	0xbea742b9	-0.32668093
6	0xbd2815ca	-0.041036405
7	0xbe8d84e0	-0.27640438
8	0xbd098d04	-0.03358175
9	0x3d2c87e8	0.042121798
10	0xbd1dee39	-0.038557265
11	0x3e0d330b	0.13789003
12	0xbca31535	-0.019907573
13	0x3d0314f0	0.03200239
14	0x3dc1e330	0.09467161
15	0x3da19a8d	0.07890806
16	0xbe1616ce	-0.14657137
17	0xbf0fd2bc	-0.5618093
18	0xbca061e6	-0.019577932
19	0xbf0d8f7f	-0.5529708
20	0xbe663a2b	-0.22483127
21	0x3ecf5f3f	0.40502355
22	0xbf1b9faa	-0.60790503
23	0xbe06d52f	-0.1316726
24	0x3f013e91	0.50486094
25	0xbd234cdc	-0.03986822
26	0x3ded49f5	0.11586372
27	0xbcb8cb11	-0.022557767
28	0x3d259dc8	0.040433675
29	0x3d5bd1fa	0.053667046
30	0xbd36abf4	-0.04459758
31	0xbca3d270	-0.019997805
32	0xbe48c3fe	-0.19606015
33	0x3c4d01a2	0.012512596
34	0x3e01ca3f	0.12674807
35	0xbe707978	-0.23483837
36	0x3d257b71	0.040400926
37	0xbe05e51d	-0.13075681
38	0xbd740045	-0.05957057
39	0xbd96d85e	-0.073654875
40	0x3ed04054	0.40674078
41	0x3e2debe3	0.16984515
42	0x3e559cf0	0.20860648
43	0xbf0076ab	-0.5018107
44	0x3dab2cda	0.08358164
45	0xbe9f6663	-0.31132802
46	0x3df6340d	0.12021647
47	0xbde6e0a4	-0.112733155
48	0x3ef14a25	0.4712688
49	0x3de0e8f8	0.10981935
50	0x3d098454	0.033573464
51	0x3dc55ee1	0.09637237
52	0xbd38fc1f	-0.045162316
53	0xbe53814a	-0.20654789
54	0x3d0a9fa7	0.033843663
55	0xbcca1e5e	-0.024672683
56	0x3e0d0509	0.13771452
57	0xbd14206b	-0.03616373
58	0x3dac28d1	0.084062226
59	0xbda061bf	-0.078311436
60	0xbde70c84	-0.11281684
61	0xbd077cef	-0.03307813
62	0xbdf01420	-0.117225885
63	0x3e108da5	0.14116533

mlp_extractor.value_net.2.weight f4 [64, 64]
0	0x3ebe8011	0.37207082
1	0xbf08851f	-0.53328127
2	0xbeafde74	-0.34349406
3	0x3eb010c6	0.34387797
4	0xbdebc43d	-0.11512039
5	0xbf46c866	-0.77649534
6	0xbeced800	-0.4039917
7	0xbd3c95ad	-0.04604118
8	0xbe3137c0	-0.17306423
9	0xbe5ad251	-0.21369292
10	0x3e383ef0	0.17992759
11	0xbed97597	-0.42472526
12	0xbe50eba9	-0.20402397
13	0xbea4ccfa	-0.32187635
14	0x3de0fcfa	0.109857515
15	0x3e18b246	0.14911756
16	0xbeeccdd0	-0.46250772
17	0xbf05abad	-0.5221508
18	0x3cc284fe	0.023745056
19	0xbf132801	-0.57482916
20	0x3df1431b	0.117803775
21	0x3e51898d	0.20462628
22	0xbeb7e16c	-0.3591417
23	0x3e286b4c	0.1644718
24	0x3f0ba379	0.54546314
25	0xbea3699a	-0.31916505
26	0xbf3e970c	-0.7444923
27	0xbda990d9	-0.082795806
28	0xbd9a9ab2	-0.07549037
29	0xbda11828	-0.078659356
30	0x3ea925fd	0.33036795
31	0xbf2b1e66	-0.6684326
32	0xbdbd748c	-0.09250745
33	0x3ea6a490	0.32547426
34	0xbf7c69b8	-0.98598814
35	0xbe2c753b	-0.16841595
36	0xbda51b08	-0.080617964
37	0x3fec917d	1.84819
38	0xbf211154	-0.62917066
39	0x3eb39849	0.35077122
40	0x3f4693f0	0.77569485
41	0xbf53c512	-0.8272258
42	0x3f206f17	0.6266951
43	0xbede50d9	-0.43421057
44	0xbf22d749	-0.6360975
45	0x3b9fcfcc	0.0048770662
46	0x3d0fdc6b	0.035122316
47	0x3d97197c	0.07377908
48	0xbd8beac0	-0.068318844
49	0xbeaf98d7	-0.34296295
50	0xbf1b24a4	-0.60602784
51	0xbe419bb2	-0.1890705
52	0x3e950008	0.29101586
53	0x3eb423a0	0.3518343
54	0xbf00be40	-0.502903
55	0x3f02d7b5	0.5111039
56	0xbe067bf1	-0.13133217
57	0xbdaf6ae9	-0.08565313
58	0x3e8b363c	0.27189815
59	0x3dd3c03d	0.10339401
60	0x3eab9dc5	0.33518806
61	0x3d4e7e66	0.05041351
62	0xbf3ced54	-0.73799634
63	0xbf80f76a	-1.0075505
64	0xbe05e39f	-0.13075112
65	0xbf76e0c3	-0.9643671
66	0x3f2cc084	0.67481256
67	0xbe398048	-0.18115342
68	0xbeda7daa	-0.42674
69	0xbed0c0bc	-0.40772045
70	0xbe3f6a56	-0.18692908
71	0x3eb5af8e	0.354855
72	0xbeb743a2	-0.35793787
73	0xbe4ec7a6	-0.20193347
74	0x3f5b59a9	0.85683686
75	0x3f0d08c9	0.5509153
76	0x3ebbbafe	0.366661
77	0x3e91ecea	0.28501064
78	0x3e7873fd	0.24262996
79	0x3e4366a6	0.19082126
80	0xbe7442fc	-0.23853678
81	0xbe902a80	-0.28157425
82	0x3f31f19d	0.695093
83	0xbf1a9fbb	-0.6039998
84	0xbe8cff38	-0.27538466
85	0xbe208e41	-0.15679266
86	0xbef2c3d0	-0.47415018
87	0x3fabaaeb	1.3411535
88	0x3e9569f1	0.2918239
89	0xbe6b998d	-0.23007794
90	0xbf1dd21c	-0.61648726
91	0x3e90dbcc	0.28292692
92	0x3f0b918c	0.5451896
93	0xbf1570f7	-0.58375496
94	0xbe5182a2	-0.20459989
95	0xbf6b05f9	-0.9180599
96	0x3de3fc35	0.11132089
97	0x3e1b401d	0.15161176
98	0xbeaf2beb	-0.34213194
99	0xbe458765	-0.1928993
100	0xbe68e8ee	-0.22745106
101	0x3ef45777	0.4772298
102	0xbf6e84d0	-0.93171406
103	0xbc8a2841	-0.016864898
104	0x3e992c8c	0.299168
105	0x3e3b5696	0.18294749
106	0x3e1058a3	0.14096312
107	0xbf0d79f3	-0.55264205
108	0xbf8b16d9	-1.0866348
109	0x3f4b5f80	0.79442596
110	0xbf89415e	-1.0723073
111	0x3ebfdc38	0.374727
112	0xbee3fb89	-0.44527844
113	0xbf56e8b4	-0.83948827
114	0xbe700caf	-0.23442338
115	0xbd9222ac	-0.071355194
116	0xbdde8d66	-0.10866813
117	0xbec4cad6	-0.38436002
118	0xbf7502ff	-0.95707697
119	0x3fa6b991	1.302538
120	0x3ec8462e	0.39116043
121	0x3f290ee9	0.66038376
122	0x3f18ec41	0.59735495
123	0xbe7c44c3	-0.24635606
124	0x3db7053a	0.08936544
125	0x3ea48ce2	0.32138735
126	0xbe9d5024	-0.30725205
127	0xbf13daa4	-0.57755494
128	0xbdc7098d	-0.097186185
129	0xbe9b25bf	-0.30302235
130	0xbd0191ea	-0.031633295
131	0x3eb4d305	0.35317245
132	0xbec17880	-0.37787247
133	0xbf1490dc	-0.5803354
134	0x3e33dd1d	0.17564817
135	0x3e62a3e6	0.22132835
136	0xbc7264e2	-0.01479456
137	0xbe0c2309	-0.1368524
138	0x3e92ae13	0.28648433
139	0x3eb99db6	0.36253136
140	0x3ee13546	0.43985957
141	0x3e6623fb	0.22474663
142	0x3e7fe97f	0.24991415
143	0x3e528752	0.20559433
144	0xbd910fad	-0.07083068
145	0xbf4f1115	-0.8088544
146	0x3e585b31	0.21128537
147	0xbf05868f	-0.52158445
148	0xbe3f6134	-0.18689424
149	0x3ea89326	0.32924765
150	0xbf54109d	-0.8283785
151	0x3dbe8053	0.0930182
152	0x3f825a61	1.0183831
153	0xbee4dd18	-0.4469993
154	0xbf041c3d	-0.5160559
155	0x3d744a68	0.05964127
156	0x3f961822	1.1726115
157	0xbe87658e	-0.26444668
158	0xbedcb8a2	-0.43109614
159	0x3e053b9f	0.13011025
160	0xbcd9cee8	-0.026587918
161	0x3dee36ff	0.116315834
162	0xbeb36078	-0.35034537
163	0xbef1a7fe	-0.4719848
164	0x3ee73eff	0.4516525
165	0x3f2f470f	0.684678
166	0xbe94120b	-0.28920016
167	0xbe8a0037	-0.2695329
168	0x3f2a3bfd	0.66497785
169	0xbea198ea	-0.31561977
170	0x3d87a1eb	0.0662268
171	0xbf531b93	-0.8246395
172	0xbf1b3822	-0.60632527
173	0xbd95db5e	-0.073172316
174	0xbf3194fb	-0.6936795
175	0x3df44272	0.11926736
176	0xbbd8d0b8	-0.006616678
177	0xbe51bb4e	-0.20481607
178	0xbef10b4f	-0.4707894
179	0x3e7270d1	0.23675849
180	0xbe907902	-0.28217322
181	0xbedd5c05	-0.43234268
182	0xbd9ccc31	-0.07656134
183	0x3e42a971	0.1900995
184	0x3f027daf	0.5097303
185	0x3ef9fa1e	0.48823637
186	0x3e50fd95	0.20409234
187	0xbd7538a1	-0.05986846
188	0xbece5285	-0.40297332
189	0xbea0f130	-0.3143401
190	0xbea68938	-0.32526565
191	0xbf285385	-0.6575244
192	0xbd32b10a	-0.04362587
193	0x3dbbd997	0.09172361
194	0xbebfa617	-0.37431404
195	0xbf046f00	-0.5173187
196	0x3dc56681	0.09638692
197	0x3eeb469f	0.45952317
198	0xbde385ad	-0.11109481
199	0x3e3883bd	0.18019004
200	0x3e43fe0c	0.1913988
201	0xbea0706f	-0.3133578
202	0xbf24b286	-0.64334905
203	0xbe65c3dc	-0.22437996
204	0x3d92bf89	0.07165439
205	0xbeeab3b5	-0.4584023
206	0xbdbf95c0	-0.093547344
207	0x3e90ad5a	0.28257257
208	0x3e9af00b	0.30261263
209	0x3f18e017	0.59716934
210	0x3e4a4402	0.19752505
211	0x3f9585ed	1.1681496
212	0x3e8e5156	0.2779643
213	0x3c91cb8a	0.01779725
214	0x3f63fe31	0.8905974
215	0x3e2311de	0.15924785
216	0xbf2786b9	-0.65439945
217	0x3e2db00c	0.16961688
218	0x3e98917b	0.29798493
219	0x3ea4bc86	0.32175082
220	0xbea2b42f	-0.31778094
221	0xbd69f6fa	-0.0571203
222	0xbdab4a39	-0.08363766
223	0xbc8890ac	-0.016670547
224	0x3ee82b6e	0.45345634
225	0x3e023cc6	0.12718496
226	0x3f030f66	0.5119537
227	0x3db41510	0.0879308
228	0x3d0cdc42	0.03438974
229	0xbf0c0594	-0.5469601
230	0xbcb484e0	-0.022036016
231	0x3e71d5e6	0.23616752
232	0xbf54e33e	-0.83159244
233	0xbb84d851	-0.0040541072
234	0xbda479c7	-0.0803104
235	0x3eb7f60d	0.3592991
236	0xbca925f4	-0.02064798
237	0x3eb661e5	0.35621563
238	0x3ebfc3dc	0.37454116
239	0x3ddb1345	0.10697035
240	0xbf01c5d8	-0.5069251
241	0x3f037708	0.513535
242	0xbe90d2dc	-0.28285873
243	0x3c784512	0.015153186
244	0x3e63433e	0.2219362
245	0x3e9f9d21	0.31174567
246	0x3ee5b1e6	0.44862288
247	0x3e14cc91	0.14531161
248	0x3d314f0e	0.043288283
249	0xbe6295e6	-0.22127494
250	0xbe5ff12f	-0.21869348
251	0xbe1fea76	-0.15616783
252	0xbba1ff0f	-0.0049437354
253	0x3ef6e2c4	0.48219883
254	0x3f3a44e6	0.7276138
255	0x3f1f260b	0.62167424

mlp_extractor.value_net.2.bias f4 [64]
0	0x3ece3687	0.40275976
1	0x3e6c1fde	0.23059031
2	0x3e7df6df	0.24801205
3	0xbf03a494	-0.51423
4	0x3e654cfa	0.22392645
5	0xbf2059fb	-0.626373
6	0xbedaf323	-0.42763624
7	0xbf1353af	-0.57549566
8	0x3de933c2	0.11386825
9	0x3e56ff44	0.20995814
10	0x3ee5d69b	0.44890293
11	0xbf0c9f27	-0.5493035
12	0x3e553ab6	0.20823178
13	0x3f2cd5df	0.6751384
14	0x3f003d30	0.50093365
15	0xbedc3bef	-0.43014476
16	0x3f1338af	0.5750837
17	0xbf082fa5	-0.531977
18	0xbd8296e6	-0.06376438
19	0x3e29a2ce	0.16566011
20	0x3eaebd17	0.3412864
21	0x3f255e52	0.64597046
22	0x3e8e13d8	0.27749515
23	0x3e9680c5	0.29395118
24	0x3f2170aa	0.63062537
25	0x3e8e8b3b	0.278406
26	0x3e9e0e9e	0.30870527
27	0x3e80b92a	0.2514127
28	0x3ef0f501	0.47061923
29	0xbe84ae15	-0.25914064
30	0x3f1667ba	0.58752024
31	0xbf0e06fc	-0.5547941
32	0xbeeecf69	-0.46642616
33	0xbea1788b	-0.3153728
34	0x3f197da0	0.59957314
35	0xbf2bcedb	-0.6711251
36	0x3ea3505d	0.3189725
37	0xbf361be1	-0.7113629
38	0x3e5ed205	0.21759804
39	0x3deb5aca	0.11491926
40	0x3e7f593a	0.24936381
41	0x3f23d4d3	0.6399662
42	0x3e44dd9b	0.19225161
43	0x3f17d1fb	0.5930478
44	0x3f45af87	0.7722096
45	0x3e39a83d	0.18130584
46	0xbecf0c15	-0.40438905
47	0x3f1c375b	0.61021966
48	0x3e04213e	0.12903306
49	0xbe1a98d8	-0.15097368
50	0x3efc91a3	0.49329862
51	0xbe3e79f4	-0.18601209
52	0xbe9bfea3	-0.3046771
53	0xbe2ca751	-0.16860701
54	0xbf1dc6a3	-0.6163122
55	0x3f2681e8	0.6504197
56	0x3f1392e8	0.57646036
57	0x3ef5eab8	0.4803064
58	0xbf2a0e84	-0.664284
59	0xbe835d60	-0.25657177
60	0xbeaf3663	-0.3422118
61	0x3f399bf8	0.72503614
62	0x3f248ace	0.642743
63	0xbf1d0571	-0.6133643

action_net.weight f4 [2, 64]
0	0xbdf64428	-0.120247185
1	0x3dbbbbeb	0.09166702
2	0x3cb014bb	0.02149426
3	0xbbc6f11f	-0.0060712243
4	0xbddd7d46	-0.1081491
5	0x3cdc412b	0.026886543
6	0xbdeddcc7	-0.116143756
7	0x3db94e25	0.09048108
8	0x3d3837c6	0.044975065
9	0x3c69676d	0.01424585
10	0x3d4756ff	0.04866695
11	0x3d483ea3	0.04888786
12	0x3d1900f4	0.037354425
13	0x3da9f320	0.082983255
14	0x3d044f8e	0.03230243
15	0xbd421cad	-0.04739063
16	0xb841aab5	-4.617377e-05
17	0x3d83f8dd	0.06443951
18	0x3d003f3c	0.031310305
19	0xbcaf3f16	-0.021392386
20	0xbdb73f7b	-0.08947655
21	0x3d351e0a	0.0442181
22	0x3dc3e4b4	0.09565106
23	0xbd245223	-0.040117394
24	0xbc2c5812	-0.0105190445
25	0xbd95f693	-0.07322421
26	0x3db309ae	0.08742081
27	0xbda2cb78	-0.07948965
28	0xbe1e6065	-0.15466459
29	0xbd198f3c	-0.037490115
30	0xbd72f2ff	-0.05931377
31	0xbcd7350d	-0.026270414
32	0x3e0822a0	0.13294458
33	0xbd59ec85	-0.05320408
34	0x3dad8223	0.08472087
35	0xbcdfeb70	-0.027333945
36	0x3d38ca30	0.045114696
37	0xbdb1f352	-0.08688988
38	0x3d32e37c	0.043673977
39	0xbdcae165	-0.09906272
40	0xbda16909	-0.07881362
41	0x3ca11848	0.019664899
42	0x3d148d24	0.036267415
43	0xbd7e6b6a	-0.062114157
44	0xbd48e747	-0.04904869
45	0x3d1a1894	0.037621096
46	0x3d675fe7	0.056487944
47	0xbd26875c	-0.040656433
48	0x3bbd1e7a	0.0057714554
49	0xbe0b8f92	-0.13628986
50	0x3d75a55a	0.059972145
51	0xbde4867f	-0.111584656
52	0xbd1958c2	-0.03743816
53	0xbd06d80a	-0.032920875
54	0xbdd759e0	-0.10515189
55	0xbe18b4fe	-0.14912793
56	0x3db0e40b	0.08637246
57	0x3de1b483	0.11020758
58	0x3dda6d65	0.106653966
59	0xbca72757	-0.0204045
60	0xbd255be7	-0.040370848
61	0x3b919168	0.0044423826
62	0xbde8b77b	-0.11363121
63	0x3c47ceab	0.01219527
64	0x3df8d06d	0.12149129
65	0xbdbeeba2	-0.09322287
66	0xbca27497	-0.019830985
67	0x3b92ced4	0.0044802222
68	0x3ddb6e6b	0.1071442
69	0xbcd5a8cd	-0.026081467
70	0x3df6a21c	0.12042639
71	0xbdbc6e9c	-0.092007846
72	0xbd3077cc	-0.043082997
73	0xbc56bfc3	-0.013107243
74	0xbd52c095	-0.05145319
75	0xbd4fc772	-0.050727315
76	0xbd195dc2	-0.03744293
77	0xbdae701f	-0.08517479
78	0xbcfe6f70	-0.031058997
79	0x3d403dcf	0.046933945
80	0x3aa2f0b3	0.0012431353
81	0xbd890aac	-0.066914886
82	0xbd017cab	-0.031613033
83	0x3c9f975e	0.019481357
84	0x3db8ef26	0.09029989
85	0xbd352134	-0.044221118
86	0xbdc1ea6e	-0.09468542
87	0x3d1f1be6	0.038844965
88	0x3c2d4d80	0.0105775595
89	0x3d963dbe	0.07335995
90	0xbdb053d6	-0.086097404
91	0x3da2a15f	0.07940935
92	0x3e20c0b2	0.15698507
93	0x3d184c5c	0.037182197
94	0x3d7a64e5	0.061131377
95	0x3ce13c76	0.02749465
96	0xbe08cde5	-0.13359793
97	0x3d5b9e57	0.0536178
98	0xbdaa5a8f	-0.08318054
99	0x3ced6620	0.028979361
100	0xbd3eeac1	-0.046610598
101	0x3dbaa39e	0.09113239
102	0xbd2867e8	-0.041114718
103	0x3dd0a498	0.10187644
104	0x3da416ed	0.08012185
105	0xbcb318f2	-0.02186248
106	0xbd1a7dbe	-0.037717573
107	0x3d7d63f4	0.0618629
108	0x3d5a569f	0.053305265
109	0xbd1c0700	-0.038092613
110	0xbd72c406	-0.059268974
111	0x3d278ef7	0.040907826
112	0xbb68b286	-0.00355068
113	0x3e0b9e52	0.13634613
114	0xbd6ee36f	-0.058322366
115	0x3de768bb	0.112992726
116	0x3d26b8e6	0.040703677
117	0x3d035e30	0.032072246
118	0x3dd6a3ec	0.10480484
119	0x3e1a5ed0	0.1507523
120	0xbdafc0e0	-0.0858171
121	0xbde3a25a	-0.111149505
122	0xbddbcfe4	-0.10733011
123	0x3cb1b567	0.021692945
124	0x3d2e05ce	0.042486005
125	0xbbe4b2cd	-0.0069793225
126	0x3ded2f33	0.11581268
127	0xbc35a16e	-0.011085851

action_net.bias f4 [2]
0	0x3cca6117	0.0247045
1	0xbcca6118	-0.024704501

value_net.weight f4 [1, 64]
0	0xc2082156	-34.032555
1	0xc2080547	-34.005154
2	0xc208c6b5	-34.19405
3	0x42086ec2	34.108162
4	0xc2080d9e	-34.013298
5	0x42084963	34.071667
6	0x42089ad3	34.151196
7	0x4207fc4d	33.996387
8	0xc2084828	-34.070465
9	0xc2080d98	-34.013275
10	0xc2085934	-34.087112
11	0x4207dfd9	33.9686
12	0xc2080f62	-34.015022
13	0xc20843b9	-34.066135
14	0xc208e95b	-34.227886
15	0x420811f8	34.017548
16	0xc2081a51	-34.0257
17	0x420813de	34.0194
18	0x420799e1	33.900272
19	0xc20863e9	-34.09757
20	0xc20865d3	-34.099438
21	0xc2083d18	-34.05966
22	0xc208aa71	-34.166447
23	0xc2074952	-33.8216
24	0xc207f352	-33.987617
25	0xc20861eb	-34.095623
26	0xc2085084	-34.07863
27	0xc2083e50	-34.060852
28	0xc2086a90	-34.104065
29	0x4208a462	34.16053
30	0xc207e868	-33.97696
31	0x420813bb	34.019268
32	0x4208330d	34.049854
33	0x42080348	34.003204
34	0xc20837fa	-34.054665
35	0x4208563c	34.084213
36	0xc2082c29	-34.043125
37	0x42085ae7	34.08877
38	0xc207f0c0	-33.985107
39	0xc207c685	-33.943867
40	0xc2080dc8	-34.01346
41	0xc2084d0d	-34.075245
42	0xc208a877	-34.164516
43	0xc2080067	-34.000393
44	0xc2082392	-34.034737
45	0xc208468b	-34.06889
46	0x4207e39c	33.972275
47	0xc20836cf	-34.053524
48	0xc2085121	-34.079227
49	0x4207b248	33.924103
50	0xc2085a1e	-34.088005
51	0x4208377d	34.054188
52	0x4208267f	34.037594
53	0x42085371	34.081486
54	0x42083f14	34.0616
55	0xc2081b12	-34.026436
56	0xc207fcfc	-33.997055
57	0xc207d56e	-33.958427
58	0x42084928	34.07144
59	0x42080390	34.00348
60	0x42082201	34.033207
61	0xc208015a	-34.00132
62	0xc207c1da	-33.93931
63	0x42080dcc	34.013474
