seq_weights.pth (torch, 485447 bytes, 11 tensors)

mlp_extractor.policy_net.0.weight f4 [64, 870]
0	0xbc803041	-0.01564801
1	0x3dd71d9f	0.10503697
2	0xbd9b0664	-0.07569578
3	0xbd35b924	-0.044366017
4	0xbd573d63	-0.052548777
5	0xbcd2ce9b	-0.025733283
6	0x3dd6c90e	0.10487567
7	0x3e1ec44b	0.15504567
8	0x3dfc450c	0.12317857
9	0xbd087459	-0.033314083
10	0xbb09062e	-0.0020908224
11	0x3dc46ead	0.09591422
12	0xbd8fde80	-0.070248604
13	0xbd337909	-0.0438166
14	0xbe292be1	-0.16520645
15	0x3d8b760b	0.06809624
16	0xbd48be62	-0.04900969
17	0x3e26d0a4	0.16290528
18	0x3e239652	0.15975311
19	0xbe25c9bc	-0.16190237
20	0x3e0af7a3	0.13571028
21	0xbd53ed1a	-0.05173979
22	0xbc600c66	-0.013674831
23	0x3bf462ec	0.0074580815
24	0x3dc52680	0.09626484
25	0xbe277f64	-0.1635719
26	0xbe0d3b3c	-0.13792127
27	0xbe22a070	-0.15881515
28	0x3e170a97	0.14750133
29	0xbd621b5e	-0.05520188
30	0x3d92443d	0.07141922
31	0xbde6930c	-0.11258516
32	0x3d488e2d	0.048963714
33	0xbcd5c9d1	-0.02609721
34	0xba9cd154	-0.001196424
35	0x3d682eba	0.056685187
36	0xbd75dbb2	-0.06002397
37	0x3e49efe4	0.19720417
38	0x3d1460aa	0.036225
39	0xbe9be5ea	-0.30448848
40	0x3d138673	0.036016893
41	0xbe406a97	-0.18790661
42	0x3e44eb81	0.19230463
43	0xbcb168fc	-0.021656506
44	0xbe3bd623	-0.18343405
45	0xbc91187c	-0.01771187
46	0xbd8ff989	-0.07030017
47	0x3d5e172f	0.05422133
48	0x3d448021	0.047973756
49	0xbd2d6dc3	-0.042341005
50	0xbdcd75a3	-0.10032203
51	0xbe589228	-0.21149504
52	0x3dfa780c	0.122299284
53	0xbe1dc7c2	-0.15408233
54	0xbe627f0c	-0.22118777
55	0xbdba03b2	-0.09082736
56	0x3d26e082	0.04074145
57	0x3da4fc79	0.08055968
58	0x3c1fe06c	0.009758096
59	0x3e1ea2ca	0.15491787
60	0xbd519c84	-0.051174656
61	0xbc3821ff	-0.011238574
62	0x3d28a290	0.041170657
63	0x3cb4a87b	0.022052994
64	0x3d384df7	0.044996228
65	0xbd44cd54	-0.04804738
66	0xbde3173e	-0.110884175
67	0xbe500ec1	-0.20318128
68	0xbcfa4eed	-0.030555213
69	0x3c9bae6c	0.01900407
70	0x3af7b094	0.0018897229
71	0xbe904689	-0.28178814
72	0x3d8c7aca	0.06859358
73	0xbdd4ac27	-0.10384398
74	0x3d5044bf	0.05084681
75	0x3d8ce9e9	0.06880552
76	0xbe24e81a	-0.16104165
77	0x3d25079f	0.04029047
78	0xbb3ad8b3	-0.002851051
79	0x3de9b257	0.11410969
80	0x3c772193	0.015083688
81	0xbe0161f4	-0.12635022
82	0xbd7f89e0	-0.062387347
83	0x3c05153c	0.008122738
84	0xbc401ff7	-0.011726371
85	0xbe0ee9b1	-0.13956334
86	0xbdc63b5a	-0.09679289
87	0xbcb9fdb8	-0.02270399
88	0x3cdb2c70	0.026754588
89	0x3de4dc95	0.11174885
90	0xbd074da1	-0.033033017
91	0xbe2e7a18	-0.17038763
92	0xbe74d4ec	-0.23909348
93	0xbc1b605e	-0.009483425
94	0x3da664f4	0.08124724
95	0x3d15873b	0.03650592
96	0xbe2512ed	-0.16120501
97	0x3e52fbe2	0.20603898
98	0xbcb7f1a4	-0.02245409
99	0xbd81a0d1	-0.063295014
100	0x3b251841	0.0025191458
101	0x3ba77d1a	0.005111349
102	0xbe2d316d	-0.16913386
103	0xbd1aae1f	-0.03776371
104	0xbe1c5ea9	-0.15270485
105	0x3d90aaaa	0.070638016
106	0x3e3fc040	0.18725681
107	0xbe2b7b72	-0.1674631
108	0xbe128583	-0.14308743
109	0xbc9b7e85	-0.018981228
110	0x3c3aedd4	0.011409242
111	0xbd9d3229	-0.07675583
112	0x3cf13787	0.029445423
113	0xbe3929a6	-0.18082294
114	0xbeb77218	-0.35829234
115	0x3cf4409a	0.02981596
116	0xbe90bec2	-0.28270537
117	0xbda40874	-0.08009425
118	0xbd8398cd	-0.06425629
119	0xbc1ecd23	-0.009692463
120	0xbdaab202	-0.083347335
121	0xbe2ff53c	-0.17183393
122	0x3d3cfa98	0.046137422
123	0x3dc7b660	0.09751582
124	0xbe0e3ac5	-0.13889606
125	0xbdab1562	-0.08353688
126	0x3d0d4d01	0.034497265
127	0xbdc097fd	-0.094039895
128	0xbe8c894b	-0.27448496
129	0xbe24b9a2	-0.16086438
130	0x3e097419	0.13423194
131	0xbcb878ae	-0.022518482
132	0x3cc8d4d0	0.02451554
133	0xbe2bad6f	-0.16765378
134	0xbe04b1fc	-0.1295852
135	0x3e1c86af	0.15285753
136	0x3e190cae	0.14946243
137	0xbe123d3a	-0.14281169
138	0x3d4b36be	0.049612753
139	0xbdbecfb9	-0.09316964
140	0xbddc0b65	-0.10744361
141	0xbe18b783	-0.14913754
142	0xbdc4027f	-0.095707886
143	0x3daa5f1b	0.08318921
144	0xbbe47db1	-0.0069729914
145	0xbe139d26	-0.14415416
146	0x3d86cc56	0.06581943
147	0xbe0b67df	-0.13613842
148	0x3ccf4997	0.025303645
149	0xbda56ed6	-0.08077781
150	0x3dd55be3	0.104179166
151	0x3da733cd	0.08164177
152	0xbdfe60e0	-0.12420821
153	0xbd3fa6a5	-0.046789784
154	0x3da9dea6	0.0829442
155	0xbe106d1d	-0.14104123
156	0xbdb1a9f8	-0.08674997
157	0xbda7fe57	-0.08202808
158	0xbd5c106e	-0.053726606
159	0xbe0cb05c	-0.13739151
160	0x3d4642a4	0.048403397
161	0x3e208523	0.15675788
162	0xbe11e3ef	-0.14247106
163	0xbd728fde	-0.059219234
164	0xbda8ef6c	-0.08248791
165	0xbd008415	-0.031375963
166	0x3dc9b294	0.09848514
167	0xbe2cce8f	-0.16875671
168	0x3dbe0b17	0.09279459
169	0xbc62311f	-0.013805657
170	0xbcc5deed	-0.02415415
171	0x3df48fee	0.11941515
172	0xbd227812	-0.03966529
173	0x3dcb7560	0.09934497
174	0x3d8565ed	0.065135814
175	0xbe4b9329	-0.19880356
176	0x3dd52345	0.10407118
177	0x3dc2d76c	0.09513745
178	0x3d191935	0.037377555
179	0xbd2763f5	-0.04086681
180	0xbe057695	-0.13033517
181	0xbd17aecc	-0.037031934
182	0x3c67f85e	0.014158336
183	0x3c819f68	0.015823081
184	0xbdcea0ce	-0.10089265
185	0xbe0f9d01	-0.14024736
186	0xbe86bd9d	-0.26316538
187	0xbbc1a46f	-0.0059094946
188	0xbd868d8c	-0.06569967
189	0xbdaad421	-0.08341242
190	0xbd7dea12	-0.061990805
191	0xbcf0f88c	-0.029415391
192	0x3e47f643	0.19527535
193	0xbe20ec90	-0.15715241
194	0x3dab60da	0.08368082
195	0xbdac7fec	-0.08422837
196	0xbe78a01c	-0.24279827
197	0xbd8d8e5c	-0.069119185
198	0xbd8d4a77	-0.06898969
199	0xb8faaf8d	-0.00011953628
200	0xbc116898	-0.008875035
201	0xbd90789c	-0.070542544
202	0xbdaf08f1	-0.08546627
203	0x3e1194ad	0.14216872
204	0x3e255e81	0.16149332
205	0x3e21a114	0.15784103
206	0xbe681462	-0.22664025
207	0xbd904db5	-0.070460714
208	0xbe6472b1	-0.22309376
209	0xbe14f062	-0.14544824
210	0x3dd36e71	0.103237994
211	0x3aa50455	0.0012589792
212	0x3d916ade	0.071004614
213	0xbd7326f6	-0.059363328
214	0x3d7a3951	0.061089817
215	0xbe136379	-0.14393415
216	0xbc29512c	-0.010334294
217	0x3c377620	0.011197597
218	0xbd814357	-0.06311672
219	0xbe04f539	-0.1298417
220	0x3c2b5072	0.010456191
221	0x3d907faa	0.070556
222	0x3c6f0f88	0.014591105
223	0x3d0a80df	0.033814307
224	0x3e006ed3	0.12542276
225	0x3e1046b4	0.14089471
226	0xbdabb854	-0.08384767
227	0xbe8065bb	-0.25077614
228	0xbdfa672a	-0.12226708
229	0xbd8d6f0a	-0.06905945
230	0x3cb97780	0.02263999
231	0xbce2fc74	-0.02770827
232	0x3db02252	0.08600296
233	0x3e70759d	0.23482366
234	0x3d8fe904	0.07026866
235	0xbc55224b	-0.013008664
236	0xbd3ba46e	-0.04581111
237	0xbe1a3582	-0.15059474
238	0xbe3c8111	-0.1840861
239	0xbc66bf11	-0.01408364
240	0x3be9c5e5	0.0071341866
241	0x3d50a5b5	0.05093928
242	0xbb9425e7	-0.00452112
243	0xbcb14615	-0.021639863
244	0xbd93c9b0	-0.07216203
245	0x3cd5f4a8	0.026117638
246	0xbd8316af	-0.06400811
247	0xbcb004d4	-0.021486677
248	0xbda94ff4	-0.08267203
249	0x3e5cdf87	0.21569644
250	0x3e2a7aa6	0.16648349
251	0xbd7b5d62	-0.061368354
252	0x3d1566ab	0.036474865
253	0x3d86d3f5	0.06583396
254	0x3ce40741	0.02783549
255	0x3db323ac	0.08747038

mlp_extractor.policy_net.0.bias f4 [64]
0	0xbc597d61	-0.013274522
1	0xbcead3ce	-0.02866545
2	0xbdaf1102	-0.08548166
3	0xbd57ebf0	-0.052715242
4	0x3cee71f5	0.029107073
5	0x3baf9422	0.005358235
6	0x3ab97d98	0.001415181
7	0x3d466767	0.048438456
8	0xbd573b8d	-0.052547026
9	0xbcf8442e	-0.030305948
10	0xbd8634e0	-0.06553054
11	0xbd26da5b	-0.040735584
12	0x3cb8fef7	0.022582514
13	0x3d0bff99	0.034179304
14	0x3cfcd39a	0.030862618
15	0x3d5c3e8a	0.05377058
16	0x3dea2bdf	0.11434149
17	0xbe2aa355	-0.16663869
18	0x3c64551b	0.013936306
19	0x3dfaa45b	0.122383796
20	0xbe059773	-0.13046055
21	0x3d078a69	0.033090983
22	0xbdb25159	-0.08706922
23	0xbd8fa590	-0.070140004
24	0x3c0ebca2	0.008711966
25	0x3ddd429c	0.1080372
26	0x3d13fdb2	0.036130615
27	0xbc2ec4d2	-0.010667043
28	0x3d31ed30	0.04343909
29	0x3d25bb93	0.040462088
30	0x3d8901d1	0.066897996
31	0x3d10e733	0.03537674
32	0x3d43f5b5	0.047841746
33	0xbc90e5ba	-0.017687667
34	0xbdd1a15b	-0.10235854
35	0x3cd5ba86	0.026089918
36	0x3cdfce3f	0.027320025
37	0x3d441754	0.04787381
38	0x3d88ff4e	0.066893205
39	0xbd8dcb3f	-0.06923532
40	0x3d9c9c81	0.07647038
41	0x3cf08319	0.029359387
42	0xbd13ffd2	-0.03613264
43	0x3bd58bf9	0.00651693
44	0x3de2e1d5	0.1107823
45	0x3c9144fd	0.017733091
46	0x3cebc2af	0.028779356
47	0xbc8eb14a	-0.017418522
48	0x3d8b8a89	0.06813533
49	0xbbd102c0	-0.0063785017
50	0xbdf12ffb	-0.1177673
51	0x3cb6b109	0.022301214
52	0x3c956ffa	0.018241871
53	0xbd74366e	-0.05962222
54	0xbe1e4992	-0.15457752
55	0x3cad0dc2	0.021124724
56	0xbcf424c5	-0.02980269
57	0xbdb1cd50	-0.086817384
58	0x3d21b9c8	0.039483815
59	0xbe0b7951	-0.13620497
60	0x3df78e9e	0.12087749
61	0x3c14aff3	0.009075153
62	0x3d2d86cc	0.04236488
63	0x3dce5e83	0.100766204

mlp_extractor.policy_net.2.weight f4 [64, 64]
0	0xbdc11750	-0.09428275
1	0xbdf6d41e	-0.12052177
2	0x3dab23de	0.083564505
3	0x3f07f0ea	0.5310198
4	0x3e91b7e7	0.2846062
5	0x3e1c3cbb	0.15257542
6	0x3ea5e38e	0.32400173
7	0x3e947628	0.28996396
8	0xbd977310	-0.07394993
9	0x3dea9c18	0.11455554
10	0xbee80d24	-0.45322526
11	0x3e13ecf6	0.14445862
12	0xbe0e3197	-0.13886105
13	0xbe2d9701	-0.16952135
14	0x3e443739	0.19161691
15	0x3dbd7a28	0.09251815
16	0x3c9bb05e	0.019004997
17	0xbe04e060	-0.12976217
18	0x3d024922	0.031808026
19	0xbe7eda15	-0.24887879
20	0x3cef3a76	0.029202681
21	0x3dde46a2	0.10853316
22	0x3da9b22c	0.08285937
23	0xbe032a9e	-0.12809226
24	0xbdde4458	-0.10852879
25	0x3e5b2e3d	0.21404357
26	0x3e2141f1	0.15747811
27	0x3efd3a02	0.4945832
28	0x3e0ef99b	0.13962404
29	0x3e6e05e9	0.23244442
30	0x3e78bc68	0.24290621
31	0xbe6ab6b3	-0.22921257
32	0xbe8eeed7	-0.27916595
33	0xbe6f19c2	-0.2334967
34	0xbc041870	-0.008062467
35	0xbe2c6ec6	-0.16839132
36	0xbc9d9b92	-0.01923922
37	0x3d86bbc5	0.06578783
38	0x3e39fc59	0.18162669
39	0xbe25f574	-0.16206914
40	0xbde9cf8f	-0.11416542
41	0x3dda6fcd	0.106658556
42	0xbf002225	-0.500521
43	0xbe2d98fa	-0.16952887
44	0x3d39ef08	0.045393974
45	0xbcf8c5ea	-0.03036781
46	0xbeb50843	-0.35357866
47	0xbe0fd03d	-0.1404428
48	0x3ea597bf	0.32342336
49	0x3f1ecf23	0.62034816
50	0x3ee05d71	0.4382129
51	0xbca6ed1f	-0.02037674
52	0xbe0cac77	-0.13737665
53	0x3ed11bd6	0.4084155
54	0xbeae16f2	-0.3400188
55	0x3c14ecfa	0.009089703
56	0xbe578a39	-0.21048822
57	0xbe62f160	-0.2216239
58	0xbc3eedc2	-0.011653366
59	0xbe40e909	-0.18838896
60	0xbdb8c6e4	-0.090223104
61	0x3dc045d6	0.0938832
62	0x3e5bd763	0.21468882
63	0x3e0e69a9	0.13907494
64	0x3ef85a47	0.48506376
65	0x3f13b667	0.577002
66	0x3d22f56c	0.039784834
67	0x3e51d1ce	0.2049019
68	0xbe589756	-0.2115148
69	0xbddf2f37	-0.108976774
70	0x3ddb9628	0.107219994
71	0x3e1587c3	0.1460257
72	0x3da5a38f	0.08087837
73	0xbe61789e	-0.22018668
74	0x3ee5ad75	0.448589
75	0xbebd37af	-0.36956546
76	0x3cdddab2	0.027081821
77	0xbe4d4f9b	-0.20049898
78	0xbe85c87d	-0.26129523
79	0x3ba5b639	0.005057123
80	0xbdddb57a	-0.108256295
81	0xbdeb810d	-0.11499224
82	0xbee58984	-0.4483148
83	0x3dec5b9f	0.11540913
84	0x3d962fdf	0.073333494
85	0xbd0ed1b4	-0.034867957
86	0xbea7651b	-0.32694325
87	0xbe015d62	-0.12633279
88	0xbd3d0106	-0.046143554
89	0xbe68d51a	-0.22737542
90	0xbe1f31f4	-0.155464
91	0xbe9bdaee	-0.30440468
92	0x3e8310d0	0.25598764
93	0xbdd3e4b1	-0.10346354
94	0x3e958805	0.29205337
95	0x3df0306b	0.11727985
96	0x3dd6e8b9	0.10493607
97	0x3df544e5	0.11976031
98	0x3db9f31d	0.09079573
99	0xbef32898	-0.47491908
100	0x3dba9e2f	0.091122024
101	0xbeeca141	-0.46216777
102	0xbceafd42	-0.028685216
103	0x3ce1e999	0.027577208
104	0xbe86567c	-0.26237857
105	0x3e1bb418	0.15205419
106	0xbebbf9aa	-0.36713916
107	0x3b8481ff	0.004043817
108	0x3def9d21	0.11699892
109	0xbe3a309d	-0.18182607
110	0xbc09aa71	-0.008402453
111	0x3e8ef0d1	0.27918103
112	0xbe5aef9b	-0.21380465
113	0xbebfd7c9	-0.37469319
114	0xbe854436	-0.26028603
115	0x3d145586	0.036214374
116	0x3cf447e1	0.02981943
117	0x3da41959	0.08012647
118	0x3cab68ad	0.020923937
119	0x3dca9513	0.09891715
120	0x3c0f9b4f	0.008765056
121	0x3d84bb9e	0.06481098
122	0xbeca089a	-0.39459687
123	0x3d33991e	0.043847196
124	0x3e511e3d	0.20421691
125	0xbe7d5fab	-0.24743526
126	0xbe04ca7f	-0.12967871
127	0x3dea96e8	0.11454564
128	0xbbdd8f19	-0.0067614433
129	0xbc4d41bf	-0.012527882
130	0xbe5266f9	-0.20547093
131	0xbcecb783	-0.028896099
132	0x3e0c4112	0.13696697
133	0xbe32922c	-0.17438573
134	0xbe03e771	-0.12881257
135	0x3d7893c1	0.060687784
136	0xbe7f2c5e	-0.24919268
137	0xbe1b9d21	-0.15196659
138	0xbe98ef12	-0.29869896
139	0x3e32f0b0	0.17474627
140	0xbdae59f7	-0.08513253
141	0x3d53047d	0.051517952
142	0x3edb3ef1	0.42821458
143	0xbd6cd76f	-0.05782264
144	0x3ddf8cda	0.10915537
145	0x3dbb00bb	0.09130999
146	0x3de7081f	0.11280846
147	0x3e5ce63f	0.21572207
148	0x3e199138	0.14996803
149	0xbdd2cf0e	-0.10293399
150	0xbe09a868	-0.13443148
151	0x3d9a2142	0.07525875
152	0x3de7b65d	0.1131408
153	0x3e2ebf7e	0.17065236
154	0xbe04b42e	-0.12959358
155	0xbe0481e6	-0.12940177
156	0x3d4222a9	0.047396336
157	0x3e3bc970	0.18338561
158	0xbdc4095e	-0.09572099
159	0x3e4cd1e7	0.20001946
160	0xbe91343a	-0.28360158
161	0x3c272b68	0.01020322
162	0xbd88de55	-0.066830315
163	0xbe0ea299	-0.13929214
164	0x3da0290f	0.07820331
165	0x3c3ef598	0.011655234
166	0xbe87a489	-0.26492718
167	0xbddfa38c	-0.10919866
168	0x3d2918f7	0.041283574
169	0xbe0c5956	-0.13705954
170	0x3de71fc0	0.11285353
171	0xbe064f06	-0.13116083
172	0x3d823fbd	0.06359813
173	0xbe11ec28	-0.14250243
174	0xbdd3a9d6	-0.10335128
175	0x3ec5423e	0.385271
176	0xbc928e4b	-0.017890116
177	0x3e7ff762	0.24996713
178	0xbd9f33f5	-0.07773582
179	0xbd5a086e	-0.053230695
180	0xbe0be763	-0.13662486
181	0x3d4d0c60	0.05006063
182	0xbd326b98	-0.04355964
183	0xbae8b8ba	-0.0017755248
184	0x3e7e51c8	0.24835885
185	0x3d89ac0e	0.0672227
186	0xbd8a4549	-0.06751496
187	0x3da05884	0.07829383
188	0x3cd59bee	0.02607533
189	0xbe07bf89	-0.13256659
190	0xbdd86d4d	-0.105677225
191	0x3cd601cd	0.026123906
192	0xbb131698	-0.0022443887
193	0xbdfc6a1f	-0.123249285
194	0xbe039f46	-0.12853727
195	0xbd3d650d	-0.046238948
196	0x3d94dace	0.07268296
197	0xbe063eb7	-0.13109861
198	0xbcb4a42d	-0.022050941
199	0xbdf4000d	-0.11914072
200	0xbdfdc1ac	-0.123904556
201	0x3e6b041c	0.22950786
202	0x3deb8385	0.11499695
203	0x3c8801e1	0.016602458
204	0xbd267323	-0.040637147
205	0x3d35f8bc	0.044426665
206	0xbdf61ce6	-0.12017231
207	0xbec1303a	-0.37732106
208	0x3d0e76ae	0.03478115
209	0xbe4c0449	-0.1992351
210	0x3c964417	0.018343015
211	0xbcff9ad7	-0.031201763
212	0x3d0ccfe1	0.034377936
213	0x3e122746	0.14272794
214	0x3d152c06	0.036418937
215	0x3d4bd958	0.049767822
216	0x3e2ce41f	0.16883896
217	0x3c997573	0.018732762
218	0x3d84f747	0.06492477
219	0xbea0ad5b	-0.3138226
220	0xbcc32307	-0.023820413
221	0x3b813cfb	0.003944037
222	0x3daf9904	0.08574107
223	0x3de9fc2f	0.11425053
224	0xbe4bcf2a	-0.19903246
225	0xbe405a4f	-0.1878445
226	0xbe0dadf1	-0.13835885
227	0xbdafbd2b	-0.08581003
228	0x3eb3aede	0.3509435
229	0x3dbcf3cb	0.09226187
230	0x3d96c10b	0.07361039
231	0xbe9e9062	-0.3096953
232	0x3e0e6390	0.13905168
233	0xbd25f4d6	-0.040516697
234	0x3ea5a7a1	0.32354453
235	0xbee7de3b	-0.45286736
236	0xbe3ab359	-0.18232478
237	0x3e62efeb	0.22161834
238	0xbeb9ba7c	-0.3627509
239	0xbed9b88f	-0.4252362
240	0x3eb21383	0.3478051
241	0xbe563fc1	-0.20922758
242	0xbe1b6181	-0.15173914
243	0xbe898e4a	-0.2686637
244	0xbd42f704	-0.047598854
245	0xbcd6d081	-0.02622247
246	0xbc20fce1	-0.009825916
247	0x3dc83cfa	0.09777255
248	0xbe9fcf68	-0.31212926
249	0x3e90ecc7	0.28305647
250	0xbe723a57	-0.23655067
251	0x3e170574	0.14748174
252	0xbe4fb022	-0.20282033
253	0x3e1aa921	0.1510358
254	0x3e5ba68c	0.21450251
255	0x3e2c2cb9	0.16813935

mlp_extractor.policy_net.2.bias f4 [64]
0	0x3ba98be5	0.0051741474
1	0x3d7d3c3c	0.061825022
2	0x3caa32ae	0.02077612
3	0xbbae49dc	-0.0053188633
4	0xbd824d7a	-0.06362434
5	0x3e59d95c	0.21274322
6	0xbdc68a13	-0.09694304
7	0x3cc725a2	0.024309937
8	0xbc5d6471	-0.013512717
9	0xba0bf5ce	-0.0005339057
10	0x3d68d9c5	0.056848306
11	0x3d8ae87b	0.067826234
12	0x3d3fa814	0.04679115
13	0x3db07918	0.08616847
14	0xbe2a4e91	-0.16631533
15	0x39480c39	0.0001907804
16	0x3a30bda4	0.0006742126
17	0x3e2c0ee3	0.16802554
18	0x3e362060	0.17785788
19	0xbd8cd758	-0.06877011
20	0xbc9fe83d	-0.01951992
21	0x3dcbb454	0.09946504
22	0xbdacca79	-0.08437056
23	0xbda48a42	-0.08034183
24	0x3def57fb	0.11686703
25	0xbca2d91d	-0.019878918
26	0xbd3702b1	-0.0446803
27	0xbbb58bb2	-0.0055403346
28	0x3d46f3b8	0.048572272
29	0xbdb4e09d	-0.08831904
30	0x3d3bcf45	0.045851965
31	0xbd578f4b	-0.05262689
32	0x3deb053f	0.1147561
33	0xbe45970c	-0.19295901
34	0xbc3b96dd	-0.011449543
35	0xbc82b4c1	-0.01595533
36	0xbaab35f0	-0.0013062339
37	0xbc9fd9ce	-0.019513037
38	0x3d1f8054	0.038940743
39	0x3e1a9fef	0.15100072
40	0xbde672d9	-0.11252374
41	0xbdbce08b	-0.09222516
42	0xbd8baec8	-0.06820446
43	0x3df07e23	0.11742809
44	0xbc730f25	-0.014835154
45	0x3db163e1	0.086616285
46	0xbd730b42	-0.05933691
47	0xbd7e5335	-0.06209107
48	0xbd20e8d4	-0.039284542
49	0xbd986353	-0.074408196
50	0x3e06cd14	0.13164169
51	0x3d6cc2da	0.057803012
52	0x3da45fd3	0.080260895
53	0xbcb820c6	-0.022476565
54	0xbba95a36	-0.0051682247
55	0x3e364b45	0.1780215
56	0xbd213a0c	-0.039362
57	0x3ce36030	0.027755827
58	0x3db15dd5	0.08660475
59	0x3d217b91	0.039424483
60	0xbcb7505b	-0.022377184
61	0xbcc57cdb	-0.024107387
62	0x3cb50038	0.02209483
63	0x3d50c32d	0.050967384

mlp_extractor.value_net.0.weight f4 [64, 870]
0	0xbea10599	-0.31449583
1	0x3d73fee4	0.059569255
2	0xbdb0202e	-0.08599888
3	0x3ceaed59	0.02867763
4	0xbe228ab7	-0.15873228
5	0xbdbf7fd0	-0.0935055
6	0x3df25ecd	0.11834488
7	0xbdeb4dac	-0.11489424
8	0xbe1a5850	-0.15072751
9	0xbd1ccb87	-0.038280036
10	0xbe2e4049	-0.1701671
11	0xbe472bf9	-0.19450368
12	0xbe709272	-0.23493364
13	0x3cb896a6	0.022532772
14	0xbcb17a82	-0.021664862
15	0x3de1e068	0.1102913
16	0xbe53e859	-0.20694102
17	0xbe43b565	-0.19112165
18	0xbe8eceaa	-0.27892047
19	0xbda01ecd	-0.07818375
20	0xbc0afcfa	-0.008483166
21	0xbe8a054a	-0.2695716
22	0x3c2c2ca5	0.010508691
23	0xbd42730d	-0.047473002
24	0x3e5d19ce	0.21591875
25	0xbd264149	-0.040589605
26	0xbcdef67c	-0.027217142
27	0x3dc5322b	0.096287094
28	0xbdc4e6fb	-0.096143685
29	0xbe6df5c0	-0.23238277
30	0xbdc67e04	-0.09692004
31	0xbd8c8dd5	-0.0686299
32	0xbe8e8696	-0.27837056
33	0xbdd895b9	-0.10575432
34	0xbefbfe22	-0.49217325
35	0x3bb1bee8	0.005424369
36	0xbe10fe13	-0.14159422
37	0x3e80faa8	0.25191236
38	0xbe36d0de	-0.17853114
39	0xbe82cd1c	-0.2554711
40	0xbe170fa9	-0.14752068
41	0xbdc6a4ef	-0.09699427
42	0x3e2e3da2	0.17015699
43	0xbe0d9987	-0.13828097
44	0xbe2a7ac9	-0.16648401
45	0x3d8eeedf	0.06979155
46	0x3c094a15	0.008379479
47	0xbe26586d	-0.1624467
48	0xbde29f3f	-0.1106553
49	0xbe17eccf	-0.14836429
50	0xbe8350f9	-0.25647715
51	0x3d3322de	0.043734424
52	0xbe34be3b	-0.17650692
53	0x3cb99ed0	0.022658736
54	0xbe8bc7ea	-0.2730096
55	0xbdd080e5	-0.10180835
56	0xbeb98520	-0.3623438
57	0xbda2d779	-0.079512544
58	0xbe469f73	-0.19396763
59	0xbdad50b4	-0.084626585
60	0xbcac6e2d	-0.02104863
61	0xbe55b6ab	-0.20870464
62	0xbd6da587	-0.058019187
63	0x3b7effe5	0.003890985
64	0x3d1b87d2	0.037971325
65	0x3c6d4b1e	0.014483241
66	0xbdd80967	-0.10548668
67	0xbd16348d	-0.03667121
68	0xbe108693	-0.14113836
69	0x3d68f8c9	0.056877885
70	0xbe3738d9	-0.1789278
71	0xbe928edc	-0.28624618
72	0xbe4754dd	-0.19465967
73	0xbd8b0996	-0.06788938
74	0xbe0498e2	-0.12948945
75	0xbc39d728	-0.011342801
76	0xbe5e4336	-0.21705326
77	0xbdcd1b5e	-0.100149855
78	0xbdb01ef3	-0.08599653
79	0xbe59f5de	-0.21285197
80	0xbe63fcae	-0.22264358
81	0xbd4be764	-0.04978122
82	0xbd426dd4	-0.04746802
83	0xbe24539a	-0.16047516
84	0xbe33345f	-0.17500447
85	0xbe159447	-0.14607345
86	0xbe4c5fec	-0.19958466
87	0xbda04585	-0.0782576
88	0xbdf44828	-0.11927825
89	0xbe5aa72c	-0.21352834
90	0xbe89a130	-0.2688079
91	0x3d7bfe0b	0.06152157
92	0x3c4739f0	0.0121598095
93	0xbe7b6057	-0.2454847
94	0xbe6df131	-0.23236538
95	0xbe7ea886	-0.24868974
96	0xbddc2edf	-0.107511275
97	0xbeac18f2	-0.33612782
98	0x3d9a1be2	0.075248495
99	0x3dfceaf7	0.123495035
100	0xbe80316f	-0.25037715
101	0xbeb65e50	-0.3561883
102	0xbc962728	-0.018329218
103	0x3d53a04b	0.05166654
104	0x3da9c4d9	0.08289499
105	0xbd8ad097	-0.067780666
106	0x3d0ac8c2	0.033882864
107	0xbe1e5e69	-0.15465702
108	0xbe76b704	-0.24093252
109	0xbe4db078	-0.20086849
110	0xbdbf821c	-0.09350988
111	0xbdee37a8	-0.11631709
112	0xbe095938	-0.1341294
113	0xbe804518	-0.25052714
114	0xbe3a82f4	-0.18214017
115	0xbe78922f	-0.24274515
116	0xbc7f83a7	-0.015595353
117	0xbe123536	-0.14278111
118	0xbe8576bc	-0.2606715
119	0xbf09890a	-0.5372473
120	0x3ddf323c	0.10898253
121	0xbe68279e	-0.22671363
122	0xbe75252e	-0.23939964
123	0xbd3a1e11	-0.04543883
124	0xbe2a2975	-0.16617377
125	0xbc37da5b	-0.011221494
126	0xbddd0873	-0.10792627
127	0xbd69c7cf	-0.057075318
128	0xbe40a2b5	-0.18812068
129	0xbe924282	-0.28566366
130	0xbe8864ae	-0.26639313
131	0xbe497ec1	-0.19677259
132	0xbddcc02e	-0.10778843
133	0xbd5301f7	-0.051515546
134	0xbda4014a	-0.08008058
135	0xbe053f4a	-0.13012424
136	0x3cf81a58	0.030286
137	0xbe04384d	-0.12912102
138	0xbdfdbf04	-0.12389949
139	0xbe9a6a91	-0.3015943
140	0x3d3dc096	0.046326242
141	0xbe342534	-0.17592317
142	0xbe1fed13	-0.1561778
143	0x3d97c63e	0.074108586
144	0xbe004d76	-0.12529549
145	0xbdb2cabe	-0.08730076
146	0xbde50f73	-0.11184587
147	0xbd77e7ac	-0.060523674
148	0xbdacbb9c	-0.08434221
149	0x3e2e0767	0.16995011
150	0xbcf8e6f0	-0.030383557
151	0xbddad053	-0.10684266
152	0xbe287dfc	-0.16454309
153	0xbe060cc9	-0.13090815
154	0xbd092861	-0.033485774
155	0xbcbc3481	-0.022974255
156	0x3e1f5de5	0.15563162
157	0x3e9807c0	0.29693413
158	0x3c4dcf0e	0.012561573
159	0xbd7b3102	-0.061326034
160	0xbdd7c5dc	-0.105357856
161	0xbe707c3a	-0.23484889
162	0x3cc65ad0	0.024213225
163	0x3da0579c	0.0782921
164	0xbe04685a	-0.12930432
165	0x3d6da39b	0.058017354
166	0x3e00053c	0.12501997
167	0x3e3927a4	0.18081528
168	0x3db837c4	0.089950114
169	0x3dc90902	0.09816171
170	0xbe52ae06	-0.20574197
171	0xbe1ebe35	-0.15502246
172	0xbd2e3590	-0.04253155
173	0xbd205456	-0.03914293
174	0xbd94a757	-0.0725848
175	0x3d37cc11	0.044872347
176	0xbdbe84e6	-0.09302692
177	0x3e1dde1f	0.15416764
178	0xbd779452	-0.060444184
179	0xbdfd0cba	-0.12355943
180	0xbcfbd366	-0.030740451
181	0xbe830980	-0.25593185
182	0xbdea47c6	-0.11439471
183	0xbea744c0	-0.3266964
184	0xbdd29792	-0.10282816
185	0xbe21b3dc	-0.15791267
186	0xbc294ccf	-0.010333254
187	0xbdf04883	-0.117325805
188	0xbce0067a	-0.027346838
189	0xbe00e259	-0.12586345
190	0xbe8feb04	-0.2810899
191	0xbeb0c76b	-0.34527144
192	0xbccd34cf	-0.025049595
193	0xbb94aa11	-0.004536875
194	0x3c571cb5	0.013129403
195	0x3e1e5777	0.15463053
196	0x3e29e114	0.16589767
197	0xbe5839e3	-0.21115832
198	0xbe905cc6	-0.2819578
199	0x3e7d0f25	0.24712808
200	0xbe2c32a8	-0.16816199
201	0xbd117a15	-0.035516817
202	0xbb632b64	-0.0034663314
203	0xbe52f5fc	-0.20601648
204	0xbdd7598a	-0.10515125
205	0xbd0e1de7	-0.034696486
206	0xbd7c00f9	-0.061524365
207	0xbd81e886	-0.063431785
208	0xbdd36c09	-0.103233404
209	0xbda25313	-0.079260014
210	0xbdd64c11	-0.10463727
211	0xbda2f487	-0.07956796
212	0xbc96da84	-0.018414743
213	0x3be117e8	0.006869305
214	0xbdcbaeda	-0.0994546
215	0xbe9ea9d8	-0.30988955
216	0xbe220ad8	-0.15824449
217	0xbd816563	-0.06318166
218	0xbeca6521	-0.3953028
219	0x3dd30579	0.10303778
220	0xbe5ccb33	-0.2156189
221	0x3e0745d2	0.13210228
222	0xbe26bc35	-0.16282733
223	0xbd3e6120	-0.046479344
224	0xbea03069	-0.31286934
225	0xbde81e6b	-0.11333927
226	0x3ce132a0	0.02748996
227	0xbdf81e09	-0.12115104
228	0x3db68b4b	0.08913287
229	0xbd06afee	-0.032882623
230	0x3e8d4e82	0.2759896
231	0x3c73eb7c	0.014887687
232	0xbe001236	-0.12506947
233	0xbe72032a	-0.2363402
234	0xbeb62256	-0.3557307
235	0xbe73dc87	-0.23814593
236	0xbe0a37b1	-0.13497807
237	0xbca1ea0d	-0.019764924
238	0x3ca3d6af	0.01999983
239	0xbde266e8	-0.11054784
240	0xbe0bf71f	-0.13668488
241	0xbe3a9dfc	-0.18224329
242	0xbdddfead	-0.10839591
243	0xbe08b0c2	-0.13348678
244	0x3caccfd0	0.021095186
245	0xbce4726a	-0.027886588
246	0xbda7cd68	-0.08193475
247	0xbd89accd	-0.06722412
248	0xbe6b4a5c	-0.22977585
249	0x3da05be6	0.07830028
250	0x3d2da8dc	0.042397365
251	0xbdc727fc	-0.09724423
252	0x3d8721cb	0.06598242
253	0xbe468512	-0.193867
254	0x3e0bf615	0.13668092
255	0xbd418f02	-0.047255524

mlp_extractor.value_net.0.bias f4 [64]
0	0xbc4a4cfd	-0.012347457
1	0xbe8b8a57	-0.27253982
2	0x3e0dec45	0.13859661
3	0xbe67099c	-0.2256226
4	0xbe07487e	-0.13211247
5	0xbeac7528	-0.33683133
6	0x3d6b6f1b	0.057479005
7	0x3a0ae817	0.00052988663
8	0xbe4bb07e	-0.19891545
9	0xbe83e3f4	-0.25759852
10	0xbe9572f7	-0.29189274
11	0xbf0fac98	-0.5612273
12	0xbe954a4b	-0.29158244
13	0x3e36a150	0.17834973
14	0xbea14b65	-0.31502834
15	0x3ecfdd9f	0.4059877
16	0x3f0b7eb6	0.5449022
17	0xbcc5426c	-0.024079524
18	0x3dd1cdc4	0.10244325
19	0x3e2b6bc8	0.16740334
20	0xbef91f1d	-0.4865655
21	0xbe82cbf9	-0.25546244
22	0x3e089c74	0.13340932
23	0x3e87b4ca	0.2650512
24	0x3e85f039	0.26159838
25	0xbe084c3c	-0.13310331
26	0x3db21f35	0.086973585
27	0xbea66a3d	-0.32502928
28	0xbc91cb85	-0.017797241
29	0xbcdbcd68	-0.026831344
30	0xbea934d2	-0.3304811
31	0xbe251cea	-0.16124311
32	0xbe81fdec	-0.2538904
33	0x3e44bb14	0.1921199
34	0xbcd97967	-0.026547147
35	0xbea1a897	-0.31573936
36	0x3ec85c43	0.3913289
37	0xbdfbc403	-0.12293246
38	0xbec9684c	-0.39337385
39	0xbe064408	-0.1311189
40	0xbecbb83f	-0.39789006
41	0x3d80b104	0.06283763
42	0x3d6ba4a1	0.05753005
43	0x3d24f32d	0.040270973
44	0x3d4748d1	0.048653428
45	0x3e9e86e9	0.30962303
46	0xbe382892	-0.17984226
47	0xbf0e5a74	-0.5560677
48	0x3e361739	0.17782296
49	0x3d22f231	0.039781753
50	0xbed77537	-0.42081615
51	0xbf15fe97	-0.585916
52	0x3ecee380	0.40407944
53	0x3e5a350d	0.213093
54	0xbecc3d69	-0.39890602
55	0xbefa25d4	-0.48856986
56	0xbe368002	-0.17822269
57	0x3e826de3	0.25474462
58	0x3e8ae1e6	0.27125472
59	0xbe9e278d	-0.3088955
60	0xbe0adc36	-0.13560566
61	0x3d5f8f6f	0.05458015
62	0xbd781e87	-0.06057599
63	0x3dbd381f	0.0923922

mlp_extractor.value_net.2.weight f4 [64, 64]
0	0x3d924d06	0.07143597
1	0xbed64762	-0.41851336
2	0x3edcc8d7	0.4312198
3	0xbc71c1ae	-0.0147556495
4	0xbda446a9	-0.0802129
5	0xbdaf7819	-0.08567829
6	0xbe67b2d0	-0.22626805
7	0xbeb5b9dc	-0.35493362
8	0x3eb3a30c	0.35085332
9	0xbf03b5a5	-0.5144904
10	0x3d9ad94b	0.075609766
11	0x3dfdfa8a	0.12401302
12	0xbecb1e04	-0.39671338
13	0xbc54903c	-0.012973841
14	0xbe80b34b	-0.2513679
15	0x3f4cb6bf	0.7996635
16	0x3e38a8c6	0.18033132
17	0xbeae0e04	-0.33995068
18	0x3e5b7ea2	0.21435025
19	0x3eb341de	0.3501119
20	0xbf05c861	-0.5225888
21	0x3e3921da	0.1807932
22	0x3eec56ba	0.46159917
23	0x3c7531d5	0.014965494
24	0x3ea63364	0.32461083
25	0x3da0f523	0.07859256
26	0xbe179c62	-0.14805749
27	0x3ee41da2	0.44553858
28	0xbda69a59	-0.08134908
29	0xbe419ef1	-0.18908288
30	0x3ca82eaa	0.020530064
31	0xbe877762	-0.2645827
32	0x3e2f8053	0.17138796
33	0xbc9d1fc8	-0.019180194
34	0xbea12184	-0.31470883
35	0x3e89aeb0	0.26891088
36	0xbe6b8a4d	-0.23001976
37	0x3e4b397c	0.19846147
38	0xbf2054a4	-0.6262915
39	0xbe228256	-0.15870032
40	0xbf63b0b2	-0.8894149
41	0x3e2d9944	0.16952997
42	0x3ce72928	0.028217867
43	0xbed50453	-0.41604862
44	0xbedfe1f1	-0.43727067
45	0x3ec6171b	0.38689503
46	0xbedfb34e	-0.43691486
47	0xbdf1aaee	-0.118001804
48	0x3f3bc665	0.733496
49	0x3dd11c89	0.10210521
50	0xbebd25eb	-0.36942992
51	0x3efd50ad	0.49475613
52	0xbe5b0a78	-0.21390712
53	0xbf2f355e	-0.68440807
54	0xbf236924	-0.63832307
55	0x3efe88fd	0.4971389
56	0x3de9f1b5	0.11423055
57	0xbde54d0c	-0.11196336
58	0x3f0a9608	0.5413518
59	0xbd070563	-0.03296412
60	0xbec08c2c	-0.37606943
61	0x3e46d38c	0.19416636
62	0xbf23b56b	-0.63948697
63	0x3f20c78d	0.6280449
64	0xbf1eb8f7	-0.62000984
65	0xbede40fe	-0.4340896
66	0x3e4c6842	0.19961646
67	0xbe8054c5	-0.25064674
68	0x3daab454	0.08335176
69	0xbe815db3	-0.252668
70	0xbf664696	-0.89951456
71	0x3f4c9968	0.7992158
72	0x3e3f33d6	0.18672118
73	0xbde568fc	-0.11201665
74	0xbe42ceaa	-0.19024149
75	0x3d65204a	0.055938996
76	0xbf3603b2	-0.7109939
77	0x3e7ee248	0.24891007
78	0x3dfe9404	0.124305755
79	0x3efc544d	0.49283066
80	0x3ea2d721	0.31804755
81	0xbcbe77a9	-0.023250418
82	0xbe157ed3	-0.14599161
83	0xbf48885a	-0.78333056
84	0xbf62641c	-0.88434005
85	0x3f1a1606	0.60189855
86	0x3eaeff06	0.34178942
87	0xbee7f655	-0.45305124
88	0xbd9eef2d	-0.07760463
89	0x3e8c2148	0.27369142
90	0xbf1d8b9a	-0.6154114
91	0xbd56fa6f	-0.052484926
92	0xbd02529b	-0.03181706
93	0xbec94c8b	-0.3931621
94	0xbe9c1085	-0.30481353
95	0xbf88316f	-1.0640086
96	0x3bb0c052	0.00539402
97	0x3f601c15	0.8754285
98	0xbf0b1dad	-0.54342157
99	0x3e7c87ed	0.24661227
100	0x3e558f60	0.20855474
101	0xbda76c2e	-0.081749305
102	0xbf69a742	-0.9127084
103	0xbf493937	-0.7860293
104	0xbf350d12	-0.7072307
105	0x3eb4453d	0.35209075
106	0xbd78ce83	-0.06074382
107	0xbed17b7a	-0.40914518
108	0xbf0e9a23	-0.55703944
109	0x3e0620d3	0.13098459
110	0xbee8652c	-0.45389688
111	0x3ed84204	0.42237866
112	0x3ecc7ef2	0.39940602
113	0xbf1a847f	-0.60358423
114	0xbf28ab4c	-0.6588638
115	0x3e86fba1	0.26363853
116	0xbde98c66	-0.11403732
117	0xbe7d34db	-0.24727194
118	0xbf885f39	-1.065406
119	0x3e133fa5	0.14379747
120	0xbea702ed	-0.3261942
121	0x3e652318	0.22376668
122	0x3e545e27	0.20739041
123	0xbec746bd	-0.38921157
124	0xbe8491e7	-0.25892565
125	0x3e5688e2	0.20950654
126	0xbe8fcb5c	-0.28084838
127	0x3e9c04fd	0.30472556
128	0x3e8ac60f	0.27104232
129	0xbeb6473b	-0.3560122
130	0x3f22c3ba	0.63579905
131	0xbede822a	-0.43458682
132	0x3d85edbb	0.06539484
133	0xbdf9a2d0	-0.12189257
134	0xbe0b5558	-0.13606775
135	0xbdf9d036	-0.12197916
136	0xbf19fc54	-0.6015065
137	0xbe9f5a51	-0.31123593
138	0xbebe423c	-0.37159908
139	0xbca2864e	-0.019839432
140	0x3eea0e53	0.45714054
141	0x3d9888ae	0.074479446
142	0xbe8f20c3	-0.27954683
143	0x3e123dad	0.1428134
144	0x3ee73817	0.4515998
145	0xbe60b498	-0.21943891
146	0xbd96893a	-0.07350393
147	0x3d6c4c22	0.057689793
148	0xbde5c00e	-0.11218272
149	0xbebe1903	-0.37128457
150	0xbd5706eb	-0.052496832
151	0x3e8fd25f	0.28090188
152	0x3e0c9fef	0.13732885
153	0xbe78e6ca	-0.24306789
154	0x3e12293b	0.1427354
155	0xbe16549b	-0.14680712
156	0xbcd79028	-0.026313856
157	0xbdde08e3	-0.10841539
158	0xbe633167	-0.22186814
159	0xbe878508	-0.26468682
160	0x3dc565e5	0.096385755
161	0x3e52a7c3	0.20571809
162	0xbea2974a	-0.3175605
163	0xbddd624c	-0.10809764
164	0x3e7d0bf0	0.24711585
165	0xbeaefe6e	-0.3417849
166	0x3eb4135f	0.3517103
167	0xbe2f09d4	-0.17093593
168	0x3e453e3d	0.19262023
169	0x3e2b1e66	0.16710815
170	0x3df5b2cb	0.11996993
171	0xbe8a06ad	-0.26958218
172	0x3e534dd8	0.20635164
173	0xbe0f8344	-0.14014918
174	0x3d85c0e9	0.06530935
175	0xbf45c058	-0.7724662
176	0x3e5a7e95	0.2133735
177	0xbe034ed0	-0.12823033
178	0xbf016976	-0.50551546
179	0xbef2bffc	-0.47412097
180	0x3ef00439	0.46878222
181	0x3ea1e6a5	0.3162128
182	0xbdba3eba	-0.090939954
183	0x3c89a8d8	0.016804144
184	0x3d8271d4	0.06369367
185	0xbe6d97d2	-0.23202446
186	0x3dc63f2d	0.096800186
187	0xbe2ec0a5	-0.17065676
188	0xbe040873	-0.12893848
189	0x3e687fa3	0.2270494
190	0x3d5a646a	0.05331842
191	0xbdcb3d59	-0.099238105
192	0xbe24a565	-0.16078718
193	0xbe293456	-0.16523871
194	0xbe854adf	-0.26033685
195	0xbef6059f	-0.48051164
196	0x3ebc56ce	0.36784977
197	0xbe97ced5	-0.29649988
198	0xbe648a26	-0.22318324
199	0xbef5d2c3	-0.4801236
200	0xbf4ca8fb	-0.79945344
201	0xbee0988e	-0.4386639
202	0xbebc85a8	-0.36820722
203	0xbd9c470c	-0.076307386
204	0x3ef6f4f2	0.48233753
205	0x3f2592e4	0.6467726
206	0xbe3ef329	-0.18647446
207	0xbdb2baca	-0.087270334
208	0x3f6fc361	0.936575
209	0x3e606611	0.21913935
210	0xbefe3ce0	-0.4965582
211	0xbca6867e	-0.020327803
212	0x3d90a940	0.07063532
213	0xbd4a40b9	-0.04937813
214	0xbf1851f7	-0.5950007
215	0x3f39ed04	0.7262728
216	0xba9ca044	-0.0011949618
217	0xbda5856f	-0.08082091
218	0xbef958be	-0.48700517
219	0xbef5de10	-0.48020983
220	0xbe935df2	-0.28782612
221	0xbd67e9ae	-0.05661934
222	0xbf3951c8	-0.72390413
223	0xbeb69474	-0.35660136
224	0xbeaa1f3f	-0.33226964
225	0x3ed40e46	0.4141714
226	0xbdc392b8	-0.09549469
227	0xbe9bbe75	-0.30418745
228	0x3e3ac533	0.18239288
229	0xbc105e32	-0.00881152
230	0x3ec84ebd	0.39122573
231	0xbec12e94	-0.3773085
232	0x3b9b3c47	0.00473741
233	0x3edfdf59	0.43725088
234	0x3db33fea	0.08752425
235	0x3e9126dc	0.2834996
236	0x3e6fa87d	0.23404117
237	0xbe10a398	-0.14124906
238	0xbeae1c65	-0.34006038
239	0xbf23991a	-0.6390549
240	0x3e8ae716	0.2712943
241	0xbebace8c	-0.36485708
242	0xbedabbb3	-0.42721328
243	0xbf061386	-0.5237354
244	0x3eb7cf1f	0.35900208
245	0x3e70bc4a	0.23509327
246	0xbe8f7114	-0.2801596
247	0xbee8d3c9	-0.4547408
248	0xbe696393	-0.22791891
249	0x3e622eb5	0.2208813
250	0x3ee8c451	0.45462278
251	0xbf276b2b	-0.653979
252	0x3e5a169f	0.21297692
253	0xbf098601	-0.537201
254	0x3eb5d498	0.3551376
255	0xbd959234	-0.07303277

mlp_extractor.value_net.2.bias f4 [64]
0	0xbe1a3ff9	-0.15063466
1	0xba55ae70	-0.00081512984
2	0x3ec672a5	0.38759342
3	0x3f29ffd4	0.6640599
4	0x3e1ac36f	0.15113614
5	0xbf04d89b	-0.51893014
6	0xbf31ac19	-0.69403225
7	0x3ed6bd22	0.41941172
8	0x3f19a4a2	0.60016835
9	0xbe4a146a	-0.1973435
10	0x3d773ddc	0.060361728
11	0x3f289738	0.6585574
12	0x3e3973de	0.18110606
13	0xbdcf3577	-0.101176195
14	0xbd076c61	-0.033062343
15	0xba16641a	-0.0005736962
16	0x3e73cb51	0.23808028
17	0xbdaad514	-0.08341423
18	0xbdd56bc7	-0.104209475
19	0x3e4e7918	0.20163381
20	0x3f038785	0.5137866
21	0xbf27ee7b	-0.6559827
22	0xbdebb964	-0.1150997
23	0x3f3a88b5	0.7286485
24	0x3c91a113	0.017777001
25	0x3f006c89	0.5016561
26	0x3f24be95	0.64353305
27	0x3df2ed37	0.118616514
28	0x3d5a26e5	0.05325975
29	0xbc3a805a	-0.01138314
30	0xbf34edac	-0.7067516
31	0xbf216fd8	-0.63061285
32	0xbec0317d	-0.37537757
33	0xbf2dad34	-0.6784241
34	0xbe881e2a	-0.26585513
35	0x3c59570f	0.013265385
36	0x3f08037a	0.53130305
37	0x3f2f63f9	0.6851192
38	0xbdba1c32	-0.09087409
39	0xbf2322bf	-0.63724893
40	0xbf16f74d	-0.589711
41	0xbb4aa542	-0.0030921255
42	0x3f2f175c	0.6839502
43	0xbf1db47b	-0.61603516
44	0xbe1652f9	-0.14680089
45	0x3f42bfad	0.76073724
46	0x3dddf054	0.108368546
47	0xbdc1aa47	-0.09456306
48	0x3de9d037	0.11416667
49	0xbed68b01	-0.41902927
50	0x3ef02ac6	0.46907634
51	0xbf2a4846	-0.6651653
52	0x3c7cb444	0.015423838
53	0x3f1c9c5f	0.61176103
54	0xbd8bb232	-0.068210974
55	0x3f11b196	0.569116
56	0x3cac6c55	0.02104775
57	0x3d3e8196	0.0465103
58	0xbf016fce	-0.50561225
59	0x3f277809	0.65417534
60	0x3f373889	0.7157064
61	0x3e2bc093	0.1677268
62	0x3c5b695c	0.013391819
63	0xbdbe4da8	-0.092921555

action_net.weight f4 [2, 64]
0	0xbe374875	-0.17898734
1	0x3e22b098	0.15887678
2	0x3b637208	0.003470542
3	0xbda469af	-0.0802797
4	0x3ebfeb44	0.3748418
5	0x3e3b2580	0.18276024
6	0xbe315c07	-0.17320262
7	0x3d6c4003	0.057678234
8	0x3c671b92	0.014105694
9	0x3e06a8f7	0.13150392
10	0xbbd8d517	-0.006617199
11	0x3cf37ce6	0.029722642
12	0x3c3e0b57	0.011599383
13	0x3e0ef42a	0.13960329
14	0xbe7eb2d7	-0.2487291
15	0xbdb2e65b	-0.08735343
16	0x3e41f0aa	0.18939462
17	0x3e09c28b	0.13453119
18	0x3e0a0da2	0.13481763
19	0x3b73ce98	0.0037201997
20	0xbc68ef8a	-0.014217267
21	0x3e6b9fd3	0.23010187
22	0xbe468054	-0.19384891
23	0xbe05c5a5	-0.13063677
24	0x3e253460	0.1613326
25	0xbc27bac4	-0.0102373995
26	0xbde1e14e	-0.110293016
27	0xbf02bb42	-0.5106698
28	0x3d2d1b80	0.042262554
29	0xbe2a6a00	-0.16641998
30	0x3d8a9c52	0.06768097
31	0x3c53cea3	0.012927684
32	0x3e2dcd99	0.1697296
33	0xbe1fdcfe	-0.15611646
34	0x3dbff554	0.093729645
35	0x3df72515	0.1206762
36	0x3e4b9596	0.19881281
37	0x3d3cebc0	0.046123266
38	0xbc3a9f86	-0.011390572
39	0x3e0c16df	0.136806
40	0xbd690d77	-0.056897607
41	0xbb40f949	-0.002944546
42	0xbeaa51fe	-0.3326568
43	0x3e3f36dc	0.18673271
44	0x3eac0350	0.33596277
45	0xbe96da01	-0.294632
46	0x3e5083fa	0.20362845
47	0x3c2aed3a	0.010432536
48	0x3eb9a4d5	0.3625857
49	0xbea605fa	-0.32426435
50	0x3d60f04b	0.05491666
51	0x3dbcf83e	0.09227036
52	0x3d5b64d7	0.053562965
53	0x3ce7ed03	0.028311258
54	0x3cc202a7	0.023682905
55	0x3e2c9b91	0.16856219
56	0xbdce27e6	-0.10066204
57	0x3ea048d7	0.31305572
58	0x3ea1a198	0.315686
59	0xbbcf5432	-0.0063271755
60	0xbb40fb38	-0.0029446613
61	0xbc89af8d	-0.016807342
62	0x3d160843	0.036628973
63	0x3d76bb6e	0.06023734
64	0x3e3976f3	0.18111782
65	0xbe232c19	-0.1593479
66	0xbb66c431	-0.0035212154
67	0x3da5ed44	0.081018955
68	0xbec10247	-0.3769705
69	0xbe3894c0	-0.18025494
70	0x3e30f03a	0.17279139
71	0xbd689df5	-0.056791265
72	0xbc811735	-0.015758136
73	0xbe05d644	-0.13070017
74	0x3c0807c9	0.008302637
75	0xbcfbe34b	-0.03074803
76	0xbc3d4bb7	-0.011553696
77	0xbe113086	-0.14178666
78	0x3e7f36e3	0.24923281
79	0x3db26cf3	0.08712187
80	0xbe41b11e	-0.18915221
81	0xbe0bb98b	-0.13644998
82	0xbe0865cd	-0.13320084
83	0xbb716ba4	-0.003683784
84	0x3c357b06	0.011076694
85	0xbe6b2f4b	-0.2296726
86	0x3e475a9d	0.1946816
87	0x3e0756d8	0.13216722
88	0xbe29845e	-0.165544
89	0x3c0f14e6	0.00873301
90	0x3de1eff1	0.11032093
91	0x3f037aea	0.51359427
92	0xbd295d99	-0.041349027
93	0x3e2a80c9	0.1665069
94	0xbd88a15b	-0.06671401
95	0xbc2c9acf	-0.010534956
96	0xbe2e143e	-0.1699991
97	0x3e20c425	0.15699823
98	0xbdc3bfc4	-0.09558061
99	0xbdf7292c	-0.120684
100	0xbe4d7c85	-0.20067032
101	0xbd442872	-0.047890134
102	0x3c414781	0.011796833
103	0xbe078c6a	-0.13237157
104	0x3d6c8bd9	0.057750557
105	0x3b7fc560	0.0039027557
106	0x3eab5d02	0.33469397
107	0xbe3af76d	-0.18258448
108	0xbeac74d3	-0.3368288
109	0x3e95bb9f	0.29244706
110	0xbe50d652	-0.20394257
111	0xbc2a20d2	-0.010383802
112	0xbeb917a1	-0.3615084
113	0x3ea56f76	0.323116
114	0xbd5fc473	-0.054630708
115	0xbdbd80a3	-0.09253051
116	0xbd60c06a	-0.054871
117	0xbcdc32fb	-0.026879778
118	0xbcbd885a	-0.023136307
119	0xbe2c53f7	-0.16828905
120	0x3dcd8fe7	0.10037213
121	0xbe9f3acd	-0.3109955
122	0xbea08cb7	-0.31357357
123	0x3bddd259	0.00676946
124	0x3bd6b01b	0.006551755
125	0x3c5b9fe8	0.013404824
126	0xbd0df69a	-0.034659006
127	0xbd68cb9a	-0.056834795

action_net.bias f4 [2]
0	0x3dfd50c0	0.123689175
1	0xbdfd50b6	-0.1236891

value_net.weight f4 [1, 64]
0	0x418194e5	16.197702
1	0x41817b57	16.185225
2	0xc178d281	-15.551393
3	0xc17aadf4	-15.667469
4	0xc1826db5	-16.303568
5	0x417aa363	15.664889
6	0x417a46ee	15.642317
7	0xc17808b3	-15.502124
8	0xc179605d	-15.586026
9	0x41765c44	15.397526
10	0xc1800206	-16.000988
11	0xc179d2f6	-15.614004
12	0x4180bf87	16.09352
13	0xc181048f	-16.127226
14	0x41805fd2	16.046787
15	0xc1812619	-16.143602
16	0xc1747325	-15.278111
17	0x4181628c	16.173119
18	0xc1827a4f	-16.309721
19	0xc17b665d	-15.712491
20	0xc17a6029	-15.648477
21	0x41796ebb	15.589534
22	0x4181e66d	16.237513
23	0xc17903ea	-15.563456
24	0xc18109cc	-16.129784
25	0xc17ac798	-15.673729
26	0xc17a5be8	-15.647438
27	0xc1810c55	-16.131021
28	0x4181d0f0	16.22702
29	0x418173b0	16.181488
30	0x4179888d	15.595838
31	0x417a9606	15.661627
32	0x4179ef7b	15.620967
33	0x417b7158	15.715172
34	0x417f3ec1	15.952821
35	0xc181ccef	-16.225065
36	0xc17a1175	-15.629262
37	0xc17a05b1	-15.6263895
38	0x41822e9c	16.272758
39	0x417acf73	15.675647
40	0x4178ea75	15.5572405
41	0xc1818cdf	-16.193785
42	0xc17b7093	-15.714984
43	0x41791feb	15.570292
44	0x417fc8c9	15.98652
45	0xc17c2624	-15.759312
46	0xc180dd46	-16.108044
47	0xc1816150	-16.172516
48	0xc17f7646	-15.966375
49	0x41763c58	15.389732
50	0xc16f8f0f	-14.972426
51	0x4179cb57	15.6121435
52	0x418152a0	16.165344
53	0xc179d32d	-15.614057
54	0xc18155a0	-16.16681
55	0xc17a0aa0	-15.627594
56	0x418064cc	16.049217
57	0xc1822976	-16.270245
58	0x417ab106	15.668219
59	0xc17afd05	-15.686772
60	0xc17984b6	-15.5949
61	0xc17f9c72	-15.975695
62	0x41816fd0	16.179596
63	0xc18133fe	-16.150387
