seq_weights.pth (torch, 485042 bytes, 11 tensors)

mlp_extractor.policy_net.0.weight f4 [64, 870]
00000000: cdba fbbc 9f1d d73d 6406 9bbd 24b9 35bd
00000010: 6f45 5fbd 05fa 3bbd eb95 af3d 59f1 1f3e
00000020: 6c10 163e eaa4 4bba 879b 03bd 024f 913d
00000030: 9371 39bd 0e7c dfbd 05f5 4abe 4f13 463d
00000040: 11d1 11bd a4d0 263e 4b2c 033e be7e 30be
00000050: fc16 0e3e 80a7 16bd 660c 60bc f85a 003c
00000060: 4048 653d 91ba 27be 070b 18be c8a0 29be
00000070: 2274 143e 5e1b 62bd 3d44 923d 0c93 e6bd
00000080: 22fa 7b3d 0a01 33bd f046 d73c 5b12 a53d
00000090: c4a0 13bd 1290 443e 606b 863c c32f 8ebe
000000a0: 2e26 033d 5e85 22be 1f2d 1f3e f4cd 2cbb
000000b0: d9d4 01be ace9 dcbc 90d2 a3bd 54d4 683c
000000c0: ab1d 2b3c 6b93 6a3b 3dc6 cabd 70d4 36be
000000d0: 40f6 db3d f55a 20be f872 6dbe 54e7 c6bd
000000e0: 623d 1e3d 79fc a43d 0dd7 643c caa2 1e3e
000000f0: 849c 51bd 11e7 06bd 2141 153d 6fb0 a0bb
00000100: a81e 0d3d a37d 07bd 3408 0bbe 504e 59be
00000110: 7a22 80bd 83dd 763c b125 01bd ee17 8abe
00000120: 1304 9c3d 3fad c2bd c175 213d 0bfd 6d3d
00000130: cb9e f6bd b3c6 b83d 2d97 92bc da74 f43d
00000140: 5310 263c d69c 06be 703e 62bd edf3 d23c
00000150: 571f 4abc 8c18 cfbd c90b 80bd 8808 c9bc
00000160: 05c2 593c 925c 083e 32dd 4cbd 4748 27be
00000170: c5ee 51be e159 58bd de9b d33d 996c b73c
00000180: 5c80 28be bbd4 2f3e 1be2 38b9 ed19 88bc
00000190: 0fd5 afbc fd94 d0bb 203b 18be 79c8 1dbd
000001a0: 1b8c 1cbe ee0b 253d 9df8 3d3e cd29 3fbe
000001b0: 705c 26be b30f a6bc c4ec 343c 7b75 a2bd
000001c0: ca73 b13b 5978 37be 88d0 a8be 9155 2e3d
000001d0: 3839 71be 0677 abbd 7dd0 98bd 0d65 d2bc
000001e0: bcd9 91bd 03aa 29be e5ad 173d 1d23 aa3d
000001f0: b7bf 1abe 06c5 9cbd 59f3 503d a0b5 78bd
00000200: e585 88be 3958 25be dc15 063e 90b4 72bc
00000210: c507 a93c 0171 2ebe 52ca 05be 95df e63d
00000220: 7084 043e 2151 d1bd dd86 993d 2266 8bbd
00000230: c8a1 c8bd 5a06 18be 4ce0 d9bd 0aad 203d
00000240: 55e0 8abc 4cfa 41be 2683 803d 52f3 fcbd
00000250: 3f5e 763c 20e8 99bd 21f7 9c3d 20eb f03d
00000260: f4a5 1fbe 15d2 cfbd 4f01 d23d b22d 1cbe
00000270: 5132 adbd 2a19 d3bd 305f 3fbd 49b6 f7bd
00000280: bff7 d53c b218 0c3e 8280 0bbe e443 cabc
00000290: 553d 90bd 31e3 c4bc 0d23 8c3d 837e 15be
000002a0: b6bc bb3d 61f7 db3b dc0a 3bbd 7bbe e13d
000002b0: 49b9 57bd dca8 843d 4cf6 a93d 716d 4cbe
000002c0: e00c d93d 240a b43d 15e8 783d 67c1 debc
000002d0: 3b6c 06be cb5d 1dbd 5fa4 9fbc bbb4 7f3b
000002e0: 9183 b1bd 3856 15be f8d7 86be 53e2 f1bc
000002f0: 8626 87bd 05a1 dfbd 4968 6ebd ea4d f2bc
00000300: 3599 383e 2904 06be 8af0 b53d 4fd6 c2bd
00000310: b062 53be 6486 8dbd 2cb7 b4bd dfd7 b4bb
00000320: 1cda 82bc aa9a 9abd 0013 c3bd 8e9e 0e3e
00000330: d736 2f3e 454b 013e 5b9d 70be 751f 25bd
00000340: bdf6 87be 1fb9 20be e4ea ab3d 14f3 0fbd
00000350: c468 713d 3a4c 78bd d8ab 4e3d e7db 22be
00000360: 7aea eebb 1cd7 dd3c cc49 7bbd 6823 f2bd
00000370: 32b9 943c be2b 823d fac7 a9bc f54a 033d
00000380: 0051 fc3d f606 1a3e 0658 c2bd c2fc 80be
00000390: b075 f9bd 1fb4 81bd 57c0 533d eb72 813a
000003a0: 7715 903d 361d 7a3e 2a86 8c3d d403 14bd
000003b0: 8ceb 19bd 4c11 19be a68c 3cbe cf84 293c
000003c0: 9cea a8bc 95fd 0c3d 65e1 2fbd 4433 d5bc
000003d0: fe4a 96bd 9936 7eba 792e 21bd a831 63ba
000003e0: 83b8 bfbd 7bea 873e 248a 1e3e 0161 08bd
000003f0: 8935 283d 5bde 423d 6d8c 383d 1445 cb3d
-0.030728722 0.10503697 -0.07569578 -0.044366017 -0.054509576 -0.045892734 0.085735165 0.1561941
0.14654702 -0.00077684096 -0.032130744 0.07095148 -0.04527433 -0.109123334 -0.1982003 0.048358258
-0.035599772 0.16290528 0.12809865 -0.17235848 0.13875955 -0.036780834 -0.013674831 0.007834189
0.055977106 -0.16379763 -0.14847957 -0.1656524 0.14497426 -0.05520188 0.07141922 -0.11258516
0.061517842 -0.043702163 0.026278943 0.08060142 -0.03604199 0.19195583 0.016408622 -0.27770814
0.032018833 -0.15871188 0.15544556 -0.0026367875 -0.12678851 -0.026966892 -0.07999146 0.014210779
0.010444085 0.0035793434 -0.09901092 -0.17854476 0.10740328 -0.15659697 -0.23188388 -0.09712091
0.038632758 0.08055968 0.013967288 0.15491787 -0.051174656 -0.032935206 0.036439065 -0.004903845
0.034453064 -0.0330788 -0.13577348 -0.2122128 -0.06256576 0.015067461 -0.031530086 -0.26971382
0.076179646 -0.095057 0.03941894 0.05810265 -0.12042006 0.09022274 -0.017894352 0.1193635
0.010135728 -0.13145766 -0.055235326 0.025751079 -0.012336574 -0.10112104 -0.06252248 -0.0245402
0.013290887 0.13316563 -0.050015636 -0.16336165 -0.2050124 -0.05282009 0.10332464 0.02239065
-0.16455215 0.17170994 -0.00017631838 -0.016613925 -0.021463899 -0.006365417 -0.14866304 -0.038521264
-0.15287821 0.04029458 0.1855187 -0.1866829 -0.162462 -0.020271158 0.011042777 -0.07932564
0.0054154145 -0.17917003 -0.32971597 0.04256207 -0.23556983 -0.08372311 -0.07461641 -0.02568295
-0.07121608 -0.1656876 0.037031073 0.083074786 -0.15112196 -0.07654767 0.051013324 -0.060720086
-0.26664653 -0.16146936 0.13094276 -0.014813557 0.020633588 -0.17035295 -0.1306546 0.11273114
0.12941146 -0.10220552 0.07496426 -0.0680659 -0.09796482 -0.14846173 -0.10638484 0.039227523
-0.016952673 -0.18943137 0.062750146 -0.12351097 0.015037118 -0.075149775 0.076643236 0.117635965
-0.1559065 -0.10147492 0.10254156 -0.15251806 -0.08456863 -0.10307534 -0.046721637 -0.12095315
0.026119111 0.13681296 -0.1362324 -0.024690576 -0.07042948 -0.024034115 0.06842623 -0.14599042
0.09166853 0.0067128395 -0.045664653 0.110226594 -0.052666936 0.0647752 0.082989305 -0.19963624
0.10598159 0.08790997 0.060768206 -0.02719183 -0.13127224 -0.038419526 -0.019487558 0.0039017636
-0.086676724 -0.14583671 -0.26336646 -0.029526865 -0.06599145 -0.10919384 -0.058204923 -0.029578168
0.18027194 -0.13087524 0.0888377 -0.09513532 -0.20643115 -0.069103986 -0.08824 -0.005518898
-0.015973143 -0.07549031 -0.09525108 0.13927671 0.17110763 0.1262637 -0.23497526 -0.040313203
-0.26555434 -0.15695618 0.08394411 -0.035143927 0.058937803 -0.06061957 0.05045685 -0.15904199
-0.0072911354 0.027080111 -0.061349675 -0.118231595 0.018154714 0.063559994 -0.020725239 0.032053906
0.12320137 0.15041718 -0.094894454 -0.2519284 -0.1218065 -0.063331835 0.0516971 0.0009876167
0.07035344 0.24425206 0.06861527 -0.036136463 -0.03757815 -0.14948004 -0.18413028 0.010346605
-0.020619683 0.034421522 -0.042939562 -0.026025422 -0.073385224 -0.0009697467 -0.03935096 -0.0008666762
-0.09361365 0.26546082 0.15482384 -0.033295635 0.04106668 0.047575336 0.045055795 0.09925285

mlp_extractor.policy_net.0.bias f4 [64]
00000000: ccf9 7fbc b3ad 99bc 0238 a9bd f42c 63bd
00000010: fbc3 cf3c 40cb 5a3c 3e7d e83b 2bfd b83c
00000020: acd4 70bd 73e4 34bd 233e 63bd 30d5 17bd
00000030: 2c11 f93c b9ef 493d f64f e83c 56ce 603d
00000040: 10a2 d33d ecb4 20be b173 52bc 3815 f73d
00000050: 9e1b 02be 03d2 1d3d f3f0 cdbd 6685 3cbd
00000060: 22ab 87bb 8933 d83d cde7 8d3c b44a 86bc
00000070: cdf8 323d 833c 633d 671f 8e3d ce6a 143d
00000080: 38eb 443d 21f5 90bc 0d81 e5bd 2db2 803c
00000090: 26d1 0b3d 74f0 d83c 7dec 833d f71b 97bd
000000a0: 0e72 bb3d 7b4f cc3c eb7f 65bd 521e 4b3c
000000b0: fba3 e63d 5b7e 163d 95be 2b3d 19e8 e3bb
000000c0: 8521 8b3d 460d 97bc a878 ddbd b5d4 f73c
000000d0: 8d02 913c ce5e 87bd 4862 18be 301b 7c3c
000000e0: e186 15bd a0cf c7bd 1e29 2c3d b6a8 0cbe
000000f0: 5124 f93d 5637 0b3c 5ddd 403d 1b37 cf3d
-0.015623521 -0.018759584 -0.08262636 -0.055462793 0.025362005 0.013354123 0.007095008 0.022581657
-0.05879657 -0.04416318 -0.05547918 -0.037068546 0.030403696 0.049300883 0.02835844 0.054884277
0.10333645 -0.15694016 -0.012844966 0.12064594 -0.12705848 0.03853036 -0.10055723 -0.046025656
-0.0041402737 0.105567046 0.017322445 -0.016393043 0.043694306 0.05547763 0.06939583 0.03623467
0.048075885 -0.017695012 -0.11206255 0.01570996 0.034135006 0.026481844 0.06441591 -0.07378381
0.091526136 0.024940243 -0.056030195 0.012397366 0.112617455 0.036741596 0.0419298 -0.0069551584
0.06793503 -0.018438946 -0.10814029 0.030252794 0.017701412 -0.066098794 -0.14881241 0.015387341
-0.036505584 -0.09756398 0.0420314 -0.13736233 0.1216513 0.00849708 0.04708611 0.101179324

mlp_extractor.policy_net.2.weight f4 [64, 64]
00000000: f374 abbd fc2d f3bd f5ab b93d eaba 073f
00000010: 195f 8e3e a075 0c3e 67e5 a93e d9f9 8d3e
00000020: 96d9 8abd 95f7 da3d 4b36 d8be 7822 213e
00000030: 7aea 0ebe 71b1 23be 489b 4d3e 8269 c43d
00000040: 4e9a 01bc 6b56 efbd ce57 9d3c e4e4 81be
00000050: 6d5c 153d 8400 003e 459d b43d ed94 ddbd
00000060: 83d3 cdbd a994 563e 0e5e 183e 1634 003f
00000070: 9211 f33d 6894 663e 1250 7f3e 6a6c 83be
00000080: 8a31 96be 360c 69be 337b e33a 011e 2fbe
00000090: b55b d4bc 3fa9 9f3d e3b2 293e 068d 13be
000000a0: cd3b edbd 21e8 fd3d c223 fbbe dbfd 35be
000000b0: 0a86 163d f028 e6bc e3ec babe e458 f0bd
000000c0: c2d5 963e ad92 183f 8271 d73e e3b6 c0bc
000000d0: b5f2 1dbe 3343 d63e 01af a3be d2d1 0c3d
000000e0: b3f4 3abe b27f 5dbe d636 423b 58b6 2ebe
000000f0: 4070 efbd 6003 803d ceef 4e3e d7b7 f63d
00000100: 3ce5 f23e bbff 0b3f 53d7 003d e257 473e
00000110: 84d1 42be 05c7 abbd 7eb5 9c3d a9c6 fb3d
00000120: 0608 b93d d94f 56be 10f5 d83e 5886 c1be
00000130: 1ac5 633d 7387 3fbe a997 7fbe 2165 a23c
00000140: e32e bebd 3283 08be ea24 e2be 276a 033e
00000150: 4904 903d b875 19bd 0e58 afbe 2eb6 16be
00000160: abac 62bd a417 6cbe da1d 0dbe 17c5 a4be
00000170: 2df4 863e 2167 b1bd 824f 9b3e b68e 063e
00000180: 7a60 f33d a781 d63d bb13 a13d a189 edbe
00000190: bb68 b53d e8e6 eebe ed87 4abc 2647 16bc
000001a0: afc4 7abe 1ba9 123e ad22 c3be bcc6 fc3b
000001b0: a852 0e3e 61cf 38be 1750 b03c 59f0 803e
000001c0: 1a29 47be 3159 b5be fd78 80be 3f21 533d
000001d0: 5d3f 3c3d 4266 993d 9b33 ea3b 6581 be3d
000001e0: 694c 0abc bde6 913d 4d3a c7be 7326 cd3c
000001f0: 75c1 563e ed7f 63be 9f9d f9bd 03f4 f63d
00000200: e97d 0a3c 1014 e93c 07a3 5cbe 8e32 4bbd
00000210: 2b5a 053e e333 4cbe 1da0 f2bd 6084 553d
00000220: 69b7 83be 6a09 32be 253e 93be fc7e 393e
00000230: 746d a6bd fec7 1e3d d5d7 d73e 34e1 97bd
00000240: 213e e13d 2e2f b23d db48 c63d a169 5f3e
00000250: 4521 173e 16cf e6bd c9df 1abe e9bf 8e3d
00000260: bcac 033e e50d 393e 853b 0abe 52a4 02be
00000270: 7a54 3a3d f32a 363e 252b dbbd 2e23 583e
00000280: e687 95be 4c99 9f3c b973 80bd 6bfe 0ebe
00000290: 4ea9 b93d a658 963c 29bf 8cbe 322d bebd
000002a0: dd1d dd3c 93bb 1dbe 2e90 ee3d 7ac1 06be
000002b0: 7be1 723d 2580 2dbe 6c81 f5bd beb3 c63e
000002c0: 0384 fdbc 742b 613e 5c28 c3bd c45d 5cbd
000002d0: 31ef dbbd 6ef6 3e3d 4fda 46bd 9834 813b
000002e0: 1f70 853e 2b9a 8f3d 5c3b 8ebd 4867 aa3d
000002f0: 08ae 823d 88af 18be 606f cbbd 72ed e73c
00000300: b014 93bb 13d0 efbd 087a f5bd abf0 e1bc
00000310: c471 8e3d e024 0cbe bda6 94bb 8d03 d2bd
00000320: 589a f8bd 7279 643e bc2c f43d 4a0a 243c
00000330: 19bd 64bd 8d32 2f3d e557 05be e2c3 c0be
00000340: ac85 143d 264a 3ebe 2d6d e93a c5bc 0dbd
00000350: 1653 403d 3d44 213e 5940 4d3d eb7a 433d
00000360: d27b 2b3e a699 d0bb c6c5 893d 765d 91be
00000370: 0e0d 2abc 1148 b23b 0036 b63d b5a9 c13d
00000380: 003c 72be 20b8 42be 4824 0cbe 88e9 b0bd
00000390: 1d40 af3e 12c8 d03d 1d97 933d 8dca 9cbe
000003a0: 2cb8 0b3e 1d8e a5bc 5b3e b23e ea5f ecbe
000003b0: 957c 45be 0691 453e 73fe bdbe efb7 cebe
000003c0: b364 ab3e e1a3 51be ae2b 1abe 99bb 8abe
000003d0: 56f3 59bd 81c0 b139 0e0a 7f3b 8697 d83d
000003e0: 7010 9abe de04 8d3e 12c9 75be 47d7 133e
000003f0: b938 54be c228 0f3e 4b24 593e 3573 2f3e
-0.08371916 -0.11874005 0.09066001 0.53019583 0.2780693 0.13716745 0.33182833 0.2772968
-0.067797825 0.10691754 -0.42228922 0.15735805 -0.13956633 -0.15985657 0.20078766 0.095904365
-0.007910324 -0.11686405 0.019206908 -0.25369942 0.036465097 0.12500197 0.08819059 -0.10819421
-0.10050108 0.20955147 0.14879629 0.50079477 0.11868586 0.2251755 0.24932888 -0.2566865
-0.2933467 -0.22758564 0.0017355442 -0.1710129 -0.025922636 0.07795953 0.16572146 -0.14409265
-0.11583672 0.12397791 -0.4905072 -0.1777262 0.036748923 -0.028095692 -0.36508855 -0.117357045
0.2945996 0.5959881 0.42078787 -0.023524707 -0.15424617 0.41848144 -0.31969455 0.034379788
-0.18257408 -0.21630743 0.0029634736 -0.17061746 -0.11691332 0.06250644 0.20208666 0.120467834
0.47440517 0.5468709 0.03145535 0.19467118 -0.19025236 -0.08387569 0.076518044 0.12293751
0.090347335 -0.20928897 0.42374468 -0.3779781 0.055607893 -0.18704014 -0.24960198 0.019823613
-0.09286287 -0.13331297 -0.44168788 0.12833463 0.07032067 -0.03746578 -0.34246868 -0.14717934
-0.05534045 -0.23055893 -0.13780919 -0.32181618 0.26358166 -0.086622484 0.30334097 0.13140377
0.11883636 0.10473948 0.078650914 -0.46394065 0.088578664 -0.46660542 -0.012361509 -0.009172237
-0.24489091 0.14322321 -0.38112393 0.0077141207 0.13898718 -0.18047859 0.021522565 0.2518337
-0.19449273 -0.3541961 -0.25092307 0.051545378 0.045958865 0.07490207 0.007147265 0.09302024
-0.008441069 0.07124088 -0.38911667 0.025042748 0.20972236 -0.22216769 -0.12188267 0.1205826
0.008452871 0.02845195 -0.21546565 -0.04960876 0.13022678 -0.19941668 -0.118469454 0.052128196
-0.25725868 -0.17386404 -0.2875835 0.18114847 -0.08126345 0.038764946 0.42156854 -0.07416001
0.10998178 0.08700405 0.09681865 0.21817638 0.14758785 -0.11269967 -0.1512443 0.06970198
0.12858862 0.18071707 -0.13499267 -0.12757996 0.04549072 0.17789821 -0.107015885 0.2110717
-0.29205245 0.019482277 -0.06272072 -0.1396424 0.090654954 0.018352818 -0.27489594 -0.09285964
0.026991779 -0.15403585 0.11648594 -0.13159743 0.059297066 -0.16943415 -0.11987576 0.38809007
-0.030946737 0.21989232 -0.09529182 -0.05380036 -0.107389815 0.046621732 -0.04854804 0.0039430372
0.26062104 0.07011827 -0.06944916 0.083204806 0.0638085 -0.1491071 -0.099333525 0.028311465
-0.00448855 -0.11709609 -0.11986166 -0.02758058 0.06955293 -0.13685942 -0.0045364783 -0.102545835
-0.12138814 0.22311953 0.11922595 0.010012219 -0.0558444 0.04277282 -0.1302181 -0.37649447
0.036260292 -0.18582973 0.0017809026 -0.034603853 0.046954237 0.15748687 0.050110195 0.047724646
0.16746452 -0.0063659726 0.067271754 -0.28391618 -0.010379089 0.00544072 0.088970184 0.09456197
-0.236557 -0.1901555 -0.13685715 -0.086382926 0.34228602 0.101944104 0.07206557 -0.30623284
0.13644475 -0.020209366 0.34813198 -0.46166927 -0.19285806 0.19293603 -0.37108192 -0.40374705
0.33475265 -0.20472671 -0.15055725 -0.2709625 -0.05321058 0.00033903497 0.0038915905 0.10575776
-0.30090666 0.27542776 -0.24002483 0.1443759 -0.20724763 0.13980392 0.21205251 0.17133792

mlp_extractor.policy_net.2.bias f4 [64]
00000000: 821d 9ebb de4f 9f3d c83a bb3c 4450 a0bb
00000010: 7394 68bd 2147 593e 2458 b2bd ef2b 9f3c
00000020: 5cc8 b3bb 67c3 7d3b 74ce 703d cfd4 823d
00000030: 7846 663d 4b91 b43d c5ba 2ebe 87b9 d63b
00000040: f23c 773c bcdb 353e d23b 3e3e dfe5 92bd
00000050: 9be7 4bbc de55 db3d 4d98 aebd 24f8 97bd
00000060: a80b 0c3e a8d7 a4bc 0313 67bd 0fe7 c3bb
00000070: 36a7 5e3d 035c b8bd 0a45 383d a95f 6dbd
00000080: bd47 0c3e 2450 3ebe 747e 12bb 18e0 f1bb
00000090: 238b 21ba 0b19 c5bc 2038 213d fc82 313e
000000a0: 9dd3 e8bd 9fbe 9ebd 1de2 93bd ad2d f83d
000000b0: 1e27 be3b 6d89 993d 2f36 6dbd b6bf 80bd
000000c0: c9c0 57bd 7a70 5cbd c95b 073e ae9a 773d
000000d0: c791 b03d 34aa 9dbc f3d1 cbbb 6c30 303e
000000e0: 544f 23bd 82da ec3c 70e2 a83d ec04 1e3d
000000f0: 9246 2cbc 06c6 d6bc b871 1e3d f88e 3e3d
-0.004825295 0.07778905 0.022855178 -0.004892381 -0.056782197 0.2121854 -0.08708218 0.019430129
-0.005486531 0.0038721205 0.05879064 0.06388246 0.056219548 0.08816775 -0.17063434 0.0065528783
0.015090214 0.17759603 0.18577507 -0.07172751 -0.012445356 0.10709737 -0.08525143 -0.07420376
0.13676322 -0.020122364 -0.056414615 -0.005978472 0.054358684 -0.09001925 0.044987716 -0.057952557
0.13699241 -0.18585259 -0.0022353204 -0.0073814504 -0.00061623956 -0.024059793 0.039360166 0.17335123
-0.11368487 -0.07751202 -0.07220862 0.12118087 0.005803003 0.07496915 -0.057913 -0.06286566
-0.05267409 -0.053818204 0.13218607 0.06045025 0.08621555 -0.019246198 -0.0062200963 0.17205971
-0.039870575 0.028912786 0.082463145 0.038578913 -0.010514872 -0.026217472 0.03868267 0.046523064

mlp_extractor.value_net.0.weight f4 [64, 870]
00000000: 0e39 9fbe e4fe 733d 2e20 b0bd 59ed ea3c
00000010: c0af 1fbe 2d0b c5bd daaf d33d a006 c3bd
00000020: 01c6 22be b2dc 34bd ab99 1bbe a6bd 38be
00000030: f728 83be d1d7 613d 177f d43c 8d15 183e
00000040: 3505 6abe 65b5 43be 036a a4be fff3 abbd
00000050: 3682 3fbd c8f1 89be a52c 2c3c 82f4 0dbd
00000060: 884f 633e 21d0 21bd 2d85 f339 a5e1 ef3d
00000070: e0f8 bebd c0f5 6dbe 047e c6bd d58d 8cbd
00000080: 641a 8abe 1be5 03be ee44 00bf 5f70 0dbb
00000090: a2c8 02be 32a7 8e3e d65e 3fbe 2617 8dbe
000000a0: 7633 16be c44b f6bd 1d9c 2b3e 4689 2dbe
000000b0: 2b64 2fbe 893f cd3d 525f a5bc 1732 43be
000000c0: 7453 12be 9483 26be a452 83be 23dc 703d
000000d0: aded 3bbe 5e55 bd3c de6b 80be f320 d0bd
000000e0: 165c b8be 79d7 a2bd de24 5bbe b450 adbd
000000f0: 2d6e acbc 2d9a 5fbe 2f26 0fbd 01d1 23bc
00000100: eb01 473d 3491 1d3b cee3 94bd 0048 78bd
00000110: 3bc6 f7bd 151f d33c c2a5 1cbe 568a 82be
00000120: b3a1 3cbe 5d4f 75bd fdf3 f1bd e787 24bd
00000130: 58fa 77be e9f9 dfbd 0233 f7bd 8c97 3abe
00000140: d01b 47be 6c5b 54bc edb3 ffbc 9c23 21be
00000150: 5d49 08be d18a 16be b912 46be 12ed abbd
00000160: ac48 11be 88ab 71be 007b 87be 8770 593d
00000170: 1e94 df3b b82e 6dbe 0cfb 79be 352f 73be
00000180: ede7 09be f268 b6be 160a 4c3d 60ae e13d
00000190: 52a3 82be 114e b6be 6f89 30bd c6a3 533d
000001a0: 01a3 b23d 0186 f1bc 1b6f fb3d d772 21be
000001b0: f7ea 4abe e038 4ebe ba65 d7bd ebe0 f1bd
000001c0: 31ea 24be 1801 90be cec9 0cbe aaaa 81be
000001d0: a0fe 33bd 5032 09be 6a26 81be 8c95 fcbe
000001e0: 0a7b a63d cb95 6fbe bd97 7abe 0adf a7bd
000001f0: a374 43be 3ebd 0fbc 7421 18be aa87 92bd
00000200: 043b 41be 3634 90be 9f5c 86be 9a2b 55be
00000210: 4ecb cdbd a945 52bd 8c6c a5bd bb50 19be
00000220: 1039 d13c 87f4 f0bd 4ad4 efbd 5633 91be
00000230: ef46 ec3c 2723 3ebe c232 2dbe 7694 bb3d
00000240: f585 b9bd 0f0c a6bd 672f 93bd 3f56 88bd
00000250: 32bd debd 7767 0e3e 59c8 89bd 7153 e3bd
00000260: 3efc 17be 9db4 eebd 29a0 f5bc 7e72 bebc
00000270: b002 4c3e d557 953e 94aa 823c 5e40 35bd
00000280: de97 d0bd c520 77be 7bb4 2d3d a813 613d
00000290: 4d5d e7bd 0574 303d 7a8c e33d 3d0b 353e
000002a0: 7613 953d 2e72 b63d 75c5 43be 061b 30be
000002b0: df00 c7bd 47b5 9fbc 2db6 bbbd c01b 373d
000002c0: e92e b7bd 6a6b 1d3e 9b4f a5bd 6e14 c1bd
000002d0: 6e40 7bbc 4a77 83be acd1 07be 2b6d a2be
000002e0: db14 d7bd 7e4e 28be 39a0 b5bc 0cc5 eabd
000002f0: ab07 8e3c 6338 1fbe 8373 8fbe 463d aabe
00000300: bd2a b4bc d2b4 08bd 395d 8dbb 716e 1e3e
00000310: 2f62 333e 0e3a 58be e1bb 87be 1545 633e
00000320: a8ed 2cbe 1ab2 5abd 08a0 1c3d a4ec 53be
00000330: 6e6f 00be fdba 2ebd ec90 b6bd 0ace 82bd
00000340: 6ecb d7bd 20e7 8ebd a66e e9bd 887e 60bd
00000350: 02f7 90bc 40c4 373d 9179 cbbd aeb8 9dbe
00000360: 1a01 22be d413 11bd de12 c9be 6e6d e43d
00000370: 424a 5dbe fa8a 053e e241 25be a330 13bd
00000380: 48b1 a0be 56a9 f2bd 9827 52ba b086 01be
00000390: 187e e03d bdb0 3dbd 33a1 863e 8448 b23d
000003a0: 8aaf 1abe 6b82 95be 7b1e c4be 36e6 97be
000003b0: 82ea 09be bff8 a2bb 4fd6 a33c dc78 e5bd
000003c0: 5ff6 0bbe b021 03be 74df debd 95fe e2bd
000003d0: fe57 a43c be8a 27bd 77f2 b4bd a804 86bd
000003e0: 2a58 5fbe f1dd 833d c13b 163d 9e00 92bd
000003f0: cc79 c53d 68e8 39be 20a9 c43d 650c e0bd
-0.31098217 0.059569255 -0.08599888 0.02867763 -0.15594387 -0.09621272 0.103362754 -0.09522748
-0.15895845 -0.044155784 -0.15195338 -0.18041095 -0.2561719 0.05513746 0.025939507 0.14851971
-0.22853549 -0.19112165 -0.3211213 -0.08396148 -0.04675504 -0.26942277 0.010508691 -0.03465701
0.22198308 -0.039505128 0.00046447795 0.1171296 -0.09324813 -0.23238277 -0.09692004 -0.0686299
-0.2697326 -0.12880366 -0.5010518 -0.002158187 -0.12771848 0.27861935 -0.18688521 -0.27556723
-0.14668068 -0.1202617 0.16758771 -0.16946897 -0.17128055 0.10021884 -0.020187054 -0.19062077
-0.14289647 -0.1626113 -0.25648987 0.05880369 -0.18352385 0.023111995 -0.25082296 -0.101625346
-0.36007756 -0.079512544 -0.21400782 -0.084626585 -0.02104863 -0.21836157 -0.034948524 -0.009998561
0.048585813 0.0024042847 -0.07270013 -0.06061554 -0.12098356 0.025771657 -0.15297607 -0.25496167
-0.18421058 -0.05989014 -0.11814115 -0.04016867 -0.24216592 -0.109363385 -0.12070276 -0.18221873
-0.19444203 -0.01296125 -0.031213725 -0.1573624 -0.13309236 -0.14701392 -0.1934308 -0.08394827
-0.14187878 -0.2360059 -0.2646103 0.05308583 0.006823077 -0.23162353 -0.24412173 -0.23748477
-0.13467379 -0.35626942 0.049814306 0.110195875 -0.2551523 -0.35606435 -0.043099817 0.05166986
0.08722497 -0.029482843 0.12277051 -0.15766464 -0.19816194 -0.20138884 -0.1051745 -0.11810478
-0.16104962 -0.28125834 -0.13748857 -0.2532552 -0.043944 -0.13398099 -0.2522462 -0.49332845
0.081289366 -0.23396985 -0.24471946 -0.08196838 -0.19087462 -0.008773146 -0.14856511 -0.07154782
-0.18870169 -0.28164834 -0.2624254 -0.20817414 -0.10048543 -0.051335964 -0.08077344 -0.14972202
0.025539905 -0.1176539 -0.11710413 -0.2835948 0.028842418 -0.18568097 -0.16913894 0.09159176
-0.090587534 -0.08107769 -0.07186776 -0.06657075 -0.1087593 0.13906656 -0.067276664 -0.110998996
-0.14842317 -0.11655543 -0.029983597 -0.023247954 0.199229 0.29168573 0.015950479 -0.04425084
-0.10185216 -0.24133594 0.042408448 0.054950386 -0.112970926 0.043079395 0.11110778 0.17680068
0.072791025 0.08908497 -0.19118293 -0.17197809 -0.09716963 -0.01949562 -0.09165607 0.0447042
-0.08944494 0.15373006 -0.08071824 -0.09427725 -0.015335185 -0.25676948 -0.13263577 -0.31723914
-0.10502025 -0.16436192 -0.022171127 -0.11463365 0.01733764 -0.15548854 -0.28017816 -0.33249873
-0.021993035 -0.03337557 -0.0043140915 0.15471818 0.17517923 -0.21115896 -0.26510528 0.22194321
-0.16887534 -0.053392507 0.038238555 -0.2069574 -0.12542507 -0.042658795 -0.089143604 -0.06386955
-0.10536848 -0.06977677 -0.11398058 -0.05480817 -0.017695908 0.044864893 -0.09935296 -0.30804962
-0.15820733 -0.0354193 -0.39272207 0.111536846 -0.21610358 0.13041297 -0.16138414 -0.035935055
-0.31385255 -0.118487045 -0.0008016764 -0.12649035 0.109615505 -0.04631113 0.2629486 0.087052375
-0.15106025 -0.29201064 -0.38304505 -0.29667825 -0.13468364 -0.0049735005 0.019999651 -0.11204693
-0.13668202 -0.1280582 -0.10882464 -0.11083714 0.02006149 -0.0409038 -0.08835309 -0.06543857
-0.21810976 0.06438816 0.03667808 -0.07129024 0.096423715 -0.18155062 0.096025705 -0.10939864

mlp_extractor.value_net.0.bias f4 [64]
00000000: beaa 64bb 780b 8dbe ab27 083e 1f74 74be
00000010: 4403 01be 301c aebe e1a8 6f3d 9e57 f3bb
00000020: 49f3 3fbe 7668 80be 7669 92be ec58 0dbf
00000030: 805c 95be 26b8 353e 8d13 a0be a3a3 c23e
00000040: 4a40 0a3f 585f 84bc 0eff b93d 3770 343e
00000050: 8161 ebbe 36d0 6fbe 9b1e 0e3e da27 823e
00000060: 3e4b 8a3e 9e7e 0dbe 047c ef3d 3e9f a1be
00000070: 7fbb e1bb 521f 9cbc f7b7 abbe 509d 20be
00000080: 3346 80be abb8 403e b719 40bd b3c6 a1be
00000090: 2351 ca3e 7076 e9bd dcc4 c5be d970 f5bd
000000a0: 0801 c1be 5f58 333d 4cde 403d abe3 ee3c
000000b0: 2211 123d fea1 953e 66cf 29be 8e20 0fbf
000000c0: 63ec 323e 70f9 b23c a7a7 d2be bd76 14bf
000000d0: 481e ce3e 372e 623e 7c49 bfbe 7594 fabe
000000e0: 6e45 37be 2566 823e becd 8a3e f1c6 9cbe
000000f0: e25e 00be 8798 363d f8a3 82bd d952 b53d
-0.003489181 -0.27547812 0.13296382 -0.23872422 -0.12598902 -0.3400588 0.058510665 -0.0074262163
-0.1874515 -0.25079697 -0.28596085 -0.5521381 -0.29172134 0.17746028 -0.31264916 0.3801547
0.5400435 -0.016158745 0.09081851 0.17620932 -0.45972827 -0.2341927 0.13878863 0.2542103
0.2701053 -0.13817832 0.11693576 -0.31566805 -0.0068888064 -0.019057903 -0.33538792 -0.1568501
-0.25053558 0.18820445 -0.046899524 -0.31596908 0.39515027 -0.11399543 -0.38626754 -0.119844146
-0.376961 0.04378545 0.047087 0.029161295 0.03566087 0.29225153 -0.16583022 -0.5590905
0.17472987 0.021847457 -0.41143534 -0.5799368 0.40257478 0.22087942 -0.37360752 -0.4894139
-0.17897579 0.25468555 0.27110094 -0.3062053 -0.12536195 0.044579055 -0.06378931 0.088536926

mlp_extractor.value_net.2.weight f4 [64, 64]
00000000: 7207 af3d d111 cfbe 463a d83e d70d 093b
00000010: 1262 7ebd 044a 96bd 8152 5dbe a13a babe
00000020: e092 b83e 6890 febe 1885 c23d 3989 0c3e
00000030: 941c c3be ee31 bdbc ac80 6cbe 8bb0 493f
00000040: 3072 2c3e 2dc2 b1be 2964 6f3e bbe2 a33e
00000050: 2767 01bf c969 423e e1d7 e53e 727e 473b
00000060: 3d1d 9d3e 7fac de3d b7b1 1ebe 2256 e73e
00000070: 2fc7 acbd 1832 31be 9986 ec3c 4163 81be
00000080: f64a 3c3e 9b80 1fbd 9e3c a8be 05dc 903e
00000090: 6280 7dbe c675 573e 3383 1bbf a7dd 1ebe
000000a0: 2df6 5fbf 0bac 253e 2263 833c b9a3 d7be
000000b0: f7ee d7be e8bd be3e 3185 d9be 494b d2bd
000000c0: bb78 343f 69a0 a23d 1bef b4be f3ec 023f
000000d0: 76f6 6dbe 509b 36bf cbab 20bf c15d 033f
000000e0: c259 ef3d d9f0 00be 7905 063f 40bf 89bc
000000f0: 4df1 babe 9ee7 413e da48 20bf 4299 1f3f
00000100: a37b 1ebf 3781 dcbe 2960 4b3e 06aa 7dbe
00000110: 6d54 b03d 81cd 7fbe 1b2c 66bf 64fe 4b3f
00000120: 6429 403e 78a8 dabd 7e69 3fbe 50f4 743d
00000130: 7351 35bf 9804 7b3e 25a6 033e 9f54 fa3e
00000140: 6d6b a03e 12ff c3bc 5efd 11be b15f 49bf
00000150: f027 61bf ae97 1a3f 84d0 ad3e d2d5 e8be
00000160: 71da a5bd 658a 8c3e dfac 1dbf e301 4ebd
00000170: 8ddd fdbc 4bbe c9be 768b 9abe 38df 87bf
00000180: bb52 0c3c db61 5f3f e853 0bbf 3ffb 7e3e
00000190: f20b 523e b272 a2bd 52af 68bf 6cd3 48bf
000001a0: 7f06 34bf 1326 b33e 253b 7cbd c1f4 d0be
000001b0: 7b37 0ebf 4dfc 023e d6ab e6be 6657 da3e
000001c0: 46b7 c93e 4df8 1abf 687f 27bf 9ecb 883e
000001d0: 9e48 f0bd 0b17 7fbe 6ae1 87bf a6c7 163e
000001e0: 62d6 a6be 6125 603e b145 503e a034 c5be
000001f0: 23a0 83be e586 573e 8bbd 8ebe 473a 9b3e
00000200: 8eb7 813e d120 c4be ebc8 263f 500c ebbe
00000210: 0769 423d d307 0fbe 18d7 0fbe 70ce dfbd
00000220: 4a4e 1dbf af7a b0be 64a0 cbbe 1589 31bd
00000230: 0c58 e13e 10ce bb3d b154 9cbe 1e27 2c3e
00000240: cdd9 f73e 2562 5dbe f5fc bbbd c7c6 9b3d
00000250: 0ce1 0ebe 3940 c2be 82a2 27bd 9f8f 943e
00000260: e9dd 253e 514e 7cbe 35d4 123e 82fa 22be
00000270: 198d eebc 4878 d4bd 4ec5 7cbe 39bf 92be
00000280: 9e58 923d e2bf 6d3e 2f38 a2be 9052 fcbd
00000290: 5e13 8a3e 57d5 babe 52e1 a73e e7f2 34be
000002a0: 12f7 273e bfb6 413e d121 023e 7f6d 89be
000002b0: be41 473e fef9 f4bd 3f67 203d c498 4dbf
000002c0: 71a4 7c3e e78e efbd 17a0 09bf d47c febe
000002d0: 39ba fd3e dd7e a73e 9535 f7bd 0423 c3bb
000002e0: 50f5 653d c761 53be c33a f83d 3802 4fbe
000002f0: e585 19be e797 6d3e cc2a 0b3d a0de a6bd
00000300: 84b8 27be 98d8 2cbe 41dc 83be 96bb f7be
00000310: c9b3 bc3e 5573 97be ee80 66be 4e5e f6be
00000320: 7c4a 4dbf 45d6 e2be f488 c0be ee34 9dbd
00000330: 105b f73e ac3f 253f 45fc 3ebe 6736 afbd
00000340: a0dc 703f aa7f 5e3e 30ef fdbe 297c adbc
00000350: 0daf 8f3d 9107 44bd 76a3 18bf 47b0 393f
00000360: 406b f93a 6e27 a2bd da2c fabe 555c f5be
00000370: 175c 92be 5cdd 5fbd 4f39 3abf 1b3d b8be
00000380: 7906 abbe 10c1 d53e 9628 c3bd 0a49 9bbe
00000390: 7672 3a3e ddc1 45bc 1f55 c83e bbc8 c0be
000003a0: 76b1 793a 1871 e13e 4f2b b73d 153d 923e
000003b0: 05eb 703e 0b0b 11be 8dd2 afbe d0a6 24bf
000003c0: f8ed 8c3e 8b6f bbbe 26f1 dcbe 1b05 06bf
000003d0: ad97 b93e 9b62 6f3e e68f 91be 65ab e8be
000003e0: 8c9f 6bbe 180e 623e 03be e83e 3b7a 28bf
000003f0: cdb1 563e 8df9 08bf 45c8 b43e 269e 8fbd
0.08546342 -0.4044328 0.4223196 0.002091279 -0.062105246 -0.07338336 -0.21613504 -0.36372855
0.36049557 -0.49719548 0.09498042 0.13724221 -0.3810774 -0.023095097 -0.2309596 0.7878501
0.16840434 -0.34718457 0.23378052 0.3200892 -0.50548023 0.18985666 0.44891265 0.0030440358
0.3068637 0.10872745 -0.1549748 0.45182902 -0.08436429 -0.17304265 0.028872775 -0.25271037
0.1838797 -0.038941007 -0.32858747 0.28292862 -0.24756005 0.21041021 -0.6074707 -0.15514241
-0.8748501 0.1617891 0.016038481 -0.42117098 -0.42174503 0.37254262 -0.4248443 -0.10268266
0.7049672 0.07940752 -0.35338673 0.51142806 -0.23238549 -0.7133074 -0.62762135 0.5131493
0.11687042 -0.12591876 0.523521 -0.016814828 -0.36512223 0.18936011 -0.6261116 0.6234323
-0.61907405 -0.43067333 0.19860901 -0.2477189 0.08609853 -0.24980737 -0.8991105 0.79685044
0.1876579 -0.10676664 -0.18692586 0.059803307 -0.70827407 0.24513471 0.12856348 0.48892686
0.3133196 -0.023925338 -0.14256808 -0.7866164 -0.87951565 0.60387695 0.33948147 -0.45475632
-0.08098305 0.27449337 -0.61591905 -0.050294768 -0.030989433 -0.39402995 -0.30184525 -1.0614996
0.008564646 0.8725869 -0.54424906 0.2490053 0.2051237 -0.07932033 -0.9089252 -0.78447604
-0.7032241 0.34989986 -0.061579842 -0.40811732 -0.55553406 0.12791558 -0.45052975 0.42644805
0.3939764 -0.60535127 -0.6542878 0.26717848 -0.11732601 -0.24911134 -1.0615666 0.14724597
-0.32585436 0.21889259 0.20339085 -0.38516712 -0.25708112 0.21047552 -0.27878985 0.303179
0.25335354 -0.38306287 0.65150326 -0.4590783 0.047463443 -0.13967828 -0.14046896 -0.10928047
-0.61447585 -0.344686 -0.39770806 -0.043343622 0.44012487 0.09170163 -0.30533364 0.16811797
0.48408356 -0.2161947 -0.09179107 0.07606273 -0.13953036 -0.37939623 -0.040926464 0.29015824
0.16197933 -0.2463925 0.14338763 -0.15915874 -0.029120015 -0.10374504 -0.24684641 -0.28661516
0.07145809 0.23217729 -0.3168349 -0.12320435 0.269679 -0.3649089 0.32789093 -0.17670785
0.16402844 0.18917368 0.12708212 -0.2684135 0.19458672 -0.11961745 0.039160963 -0.80311227
0.24672104 -0.11697178 -0.537599 -0.4970461 0.4955614 0.32713977 -0.12070767 -0.005955102
0.05614215 -0.20642768 0.12120583 -0.2021569 -0.14992483 0.23202477 0.03397636 -0.08147931
-0.16378981 -0.16879499 -0.25753978 -0.48385304 0.36855915 -0.2958018 -0.2251012 -0.48118824
-0.8019178 -0.443041 -0.37604487 -0.07676111 0.48311663 0.6455028 -0.1865092 -0.08555298
0.9408665 0.21728387 -0.49596548 -0.021177368 0.0701581 -0.04785878 -0.5962442 0.725346
0.0019029155 -0.07917677 -0.48862344 -0.47922006 -0.28585884 -0.054654464 -0.72743696 -0.3598412
-0.33403376 0.41748857 -0.095292255 -0.30329162 0.18207726 -0.012070146 0.39127442 -0.37653145
0.000952504 0.44031596 0.08943807 0.28562227 0.23527153 -0.14164369 -0.34340325 -0.64317036
0.27525306 -0.36608538 -0.43152732 -0.5235154 0.36248532 0.23377459 -0.28430098 -0.45443264
-0.23010081 0.22075689 0.45457467 -0.6581151 0.20966263 -0.53505784 0.35309044 -0.07012586

mlp_extractor.value_net.2.bias f4 [64]
00000000: 9ade 2cbe 76f8 00bc 8dec da3e 3f5f 2b3f
00000010: 7f2c 243e a58b 06bf 8aa6 32bf 1344 d63e
00000020: 822a 1a3f f650 4bbe 2981 8d3d 2515 293f
00000030: 35e6 273e c3ae b9bd 24a1 17bd 70fd 223c
00000040: db62 723e 7a27 bebd 31e7 c6bd cdbf 4f3e
00000050: a065 033f 46e5 29bf 90d9 f8bd 7825 3a3f
00000060: de64 bf3c a0bf 013f 6fdb 253f a3ac fb3d
00000070: 5387 2b3d 6e3b 91bc 97c7 36bf 7a15 23bf
00000080: f9fa c4be bbd1 2fbf 361a 8bbe 3166 003d
00000090: 4098 053f 927c 2f3f 0ca9 ecbd 131a 23bf
000000a0: d207 1abf ece6 433b 84ce 303f fe84 1ebf
000000b0: c10e 1bbe a468 433f 28c3 ea3d 75e8 b0bd
000000c0: 9e6e f63d 69cd d3be d6b5 ef3e 8b73 27bf
000000d0: cc23 003c 0ebc 1d3f 7958 6cbd 3006 123f
000000e0: c9c3 4f3c 437c 513d 1cea 06bf 3a78 293f
000000f0: 5b48 383f b877 4b3e 32c1 ca3b 514d b8bd
-0.16881791 -0.007871738 0.427586 0.6694221 0.16032599 -0.5255683 -0.6978537 0.41848812
0.6022111 -0.19855103 0.06909401 0.6604789 0.16396411 -0.09066536 -0.03701891 0.0099481195
0.23670523 -0.09284873 -0.09712065 0.2028801 0.5132694 -0.6636547 -0.12150872 0.7271342
0.023363527 0.5068302 0.64787954 0.12288787 0.041877102 -0.017728534 -0.713983 -0.63704646
-0.38472727 -0.686794 -0.27168435 0.031347457 0.5218544 0.68549454 -0.11555681 -0.6371166
-0.6016818 0.0029892279 0.6906512 -0.6192168 -0.15142347 0.76331544 0.11463004 -0.08638088
0.12032817 -0.41367653 0.46818417 -0.6541068 0.007821035 0.61615074 -0.05770156 0.5704069
0.012680956 0.051143896 -0.5270097 0.66199076 0.71985406 0.19869888 0.0061875815 -0.08999122

action_net.weight f4 [2, 64]
00000000: 0c93 34be 90c8 183e c749 8a3a f1aa 9abd
00000010: ffa3 b63e 46a4 393e 887e 28be d98f 483d
00000020: b81b 1f3c 8204 013e a15a 36bc 0a9b f33c
00000030: 81c1 1dbb c47c 123e 1ff4 7cbe 415c 93bd
00000040: f290 493e c877 0c3e 0a7c 073e d480 083b
00000050: d0e4 85bc a1b8 5d3e a46c 46be 40bf f1bd
00000060: c483 233e 7a9c 0cbb cdcf f7bd 4ce0 02bf
00000070: 5d2f 5b3d 9463 2bbe a665 973d 74aa 4abb
00000080: a472 2b3e 7801 22be 7ad3 d53d 36d8 023e
00000090: 5dd1 523e 8a89 163d 40aa 923a 1eee 0a3e
000000a0: 4477 38bd 30b1 d53b bcab a2be 343e 3e3e
000000b0: c248 a63e 1642 8ebe 6f27 4c3e 0baa ad3b
000000c0: cf20 af3e 4afa 9fbe 5a22 4d3d d291 8a3d
000000d0: 21a7 393d 6e60 143d 84b4 313c aa2a 293e
000000e0: 59a0 c6bd 6781 9f3e 4547 9b3e 0489 453b
000000f0: 3d92 ad3a f758 89bc 53e8 393d 670a 623d
00000100: 8ec1 363e 1644 19be e1ed 90ba 932e 9c3d
00000110: 06bb b7be 8a13 37be b312 283e f5ed 44bd
00000120: 0e2e 3abc d831 00be 51f7 513c 9901 fcbc
00000130: 7abf 203b 28b9 14be 3e78 7d3e e5e2 923d
00000140: 6b51 49be cb6e 0ebe 39d4 05be 5e20 06bb
00000150: e354 583c 1048 5dbe f046 473e bce1 f43d
00000160: c2d3 27be d207 283a 70de f73d f49f 033f
00000170: 8b71 57bd 607a 2b3e ba6a 95bd 99be b33b
00000180: 48b9 2bbe a1e8 223e f29d d9bd 45da 02be
00000190: 55b8 54be 63c6 1dbd 43c7 3aba ac63 06be
000001a0: 99f5 3b3d 7e4b b6bb c4b6 a33e c9fe 39be
000001b0: 49ba a6be b423 8d3e d379 4cbe 8911 acbb
000001c0: 9f93 aebe ca63 9f3e 91f6 4bbd 421a 8bbd
000001d0: dc02 3fbd 9483 0ebd 49bf 28bc 17e3 28be
000001e0: 6408 c63d 6573 9ebe 6732 9abe 738c 28bb
000001f0: 0c9b 153b bdf2 5a3c b7d6 31bd 841a 54bd
-0.17634219 0.14920259 0.0010550552 -0.07552136 0.35671994 0.18129072 -0.16454518 0.04896531
0.0097111985 0.12599376 -0.011130006 0.029737014 -0.0024071636 0.14305407 -0.247025 -0.071953304
0.19684198 0.13717568 0.13230911 0.002082874 -0.016344458 0.21652462 -0.1937738 -0.11804056
0.15968233 -0.0021455572 -0.12100182 -0.511235 0.053511966 -0.16737205 0.07392435 -0.0030924352
0.1674295 -0.15820873 0.104407266 0.1277779 0.20587678 0.03675226 0.0011189654 0.13567397
-0.045035616 0.0065213665 -0.31771648 0.18578416 0.32477385 -0.27784795 0.19936918 0.0052998117
0.34204718 -0.31245643 0.05008159 0.06766094 0.045325402 0.036224775 0.010846261 0.16520181
-0.09698553 0.31153414 0.30327812 0.0030141482 0.0013242435 -0.016766055 0.045387577 0.0551857
0.17847273 -0.14967379 -0.0011057222 0.07626071 -0.35884875 -0.17878547 0.16413383 -0.048078496
-0.011363519 -0.12519014 0.0128153125 -0.03076248 0.0024528191 -0.14523757 0.247529 0.07172183
-0.19659965 -0.13909452 -0.13069238 -0.002046607 0.013203832 -0.21609521 0.19460654 0.11957118
-0.16389373 0.0006409857 0.121029735 0.51415944 -0.052598517 0.16745901 -0.07295747 0.0054853675
-0.16769898 0.15909053 -0.10625829 -0.12778576 -0.20773442 -0.038519274 -0.0007125029 -0.1312396
0.045888517 -0.0055631986 0.31975377 -0.18163599 -0.32564 0.27566302 -0.19968347 -0.005251114
-0.34097 0.3113082 -0.04979569 -0.06792118 -0.046633586 -0.03479345 -0.010299512 -0.16492878
0.09669569 -0.30947414 -0.3011658 -0.002571848 0.002282801 0.013363537 -0.04341766 -0.0517831

action_net.bias f4 [2]
00000000: 8c6c fb3d 7e6c fbbd
0.12276563 -0.122765526

value_net.weight f4 [1, 64]
00000000: 6ca0 8141 d786 8141 42bb 78c1 be96 7ac1
00000010: 3779 82c1 2c8c 7a41 b52f 7a41 840d 78c1
00000020: 2049 79c1 5a67 7641 870d 80c1 b7bb 79c1
00000030: 0acb 8041 1110 81c1 526b 8041 9b31 81c1
00000040: c45c 74c1 0c6e 8141 cf85 82c1 cc85 7bc1
00000050: f048 7ac1 7f57 7941 edf1 8141 b6ec 78c1
00000060: 4c15 81c1 5eb0 7ac1 b144 7ac1 d517 81c1
00000070: 72dc 8141 307f 8141 5771 7941 c87e 7a41
00000080: 47d8 7941 1d5a 7b41 f2da 7e41 73d8 81c1
00000090: 3efa 79c1 84ee 79c1 273a 8241 39b8 7a41
000000a0: 3bd3 7841 5f98 81c1 5959 7bc1 c108 7941
000000b0: fedf 7f41 ee0e 7cc1 c7e8 80c1 d26c 81c1
000000c0: 7d8d 7fc1 a5d8 7441 039d 6fc1 2bb4 7941
000000d0: 215e 8141 f3bb 79c1 2161 81c1 66f3 79c1
000000e0: 4d70 8041 f634 82c1 ca99 7a41 d0e5 7ac1
000000f0: 786d 79c1 afb3 7fc1 517b 8141 7e3f 81c1
16.203331 16.19084 -15.545717 -15.661802 -16.309187 15.659222 15.636647 -15.5033
-15.580353 15.400232 -16.006605 -15.608329 16.09914 -16.132845 16.052402 -16.149221
-15.272648 16.178734 -16.315336 -15.720165 -15.642807 15.583861 16.243128 -15.557791
-16.135399 -15.668058 -15.64177 -16.136637 16.23264 16.187103 15.590171 15.655952
15.615302 15.7095 15.928453 -16.230688 -15.623594 -15.620731 16.278395 15.669976
15.55157 -16.1994 -15.709313 15.564637 15.992186 -15.753645 -16.11366 -16.178135
-15.972043 15.302892 -14.975833 15.606486 16.170961 -15.608386 -16.172426 -15.621923
16.054834 -16.27586 15.662546 -15.681107 -15.589226 -15.981368 16.185213 -16.156002
